experiments/cnn_100_epochs.pt (torch, 745410 bytes, 11 tensors)

encoder.0.weight f4 [32, 1, 3, 3]
000000 24 d0 b8 3e 54 eb 22 3f 97 04 f6 3e 60 90 83 be
       0.360963 0.6364033 0.48050377 -0.25696087
000010 f0 ba 81 bd a9 13 23 3e f9 f0 e8 be 98 77 75 be
       -0.063344836 0.15925469 -0.45496348 -0.23971403
000020 d4 de 22 be af e2 2b 3f 23 be ca bc cd ba 62 be
       -0.15905315 0.67142767 -0.024748867 -0.22141571
000030 ac 49 da bd 6d f8 26 3f 6e ff 29 3d 06 95 2d bf
       -0.10658583 0.6522282 0.041503362 -0.67805517
000040 e4 63 e1 be b8 92 0c bf f2 f6 a8 be 2e 5d 84 3d
       -0.44021523 -0.54911375 -0.33000904 0.06463085
000050 49 18 63 3e 29 6a e3 be 24 ec e9 3e 8c db 4d be
       0.22177233 -0.4441693 0.45687973 -0.20103282
000060 36 45 07 3e 43 68 b9 3e 66 b9 47 be 31 b0 3f bf
       0.13209996 0.36212358 -0.19504318 -0.7487822
000070 53 9a b1 be 8f 2e 83 bf 2a cd 93 3d 35 36 29 be
       -0.34688053 -1.0248584 0.07216866 -0.16524585
000080 89 c6 6e 3e 16 98 8e be 38 5d 9b bd ba a5 ed 3d
       0.23317923 -0.27850407 -0.075861394 0.116038755
000090 fa ce 0e bc 63 54 e6 be 75 1d f7 3c 6c 05 d7 3c
       -0.008716339 -0.44986257 0.030165413 0.026247703
0000a0 4c 42 eb 3e f5 dc e7 3e c9 78 5d be 29 f1 07 3e
       0.45949018 0.45285764 -0.21628107 0.13275589
0000b0 20 94 8e be da bd dd bd 0c b0 43 3d 5c 71 a6 3e
       -0.27847385 -0.10827227 0.047775313 0.3250836
0000c0 26 e3 e1 3e 3b 92 3b 3e c6 76 86 3c 3c ee 11 be
       0.44118613 0.18317501 0.016414057 -0.14251035
0000d0 cf 69 cd be e8 a6 81 be 80 94 f5 3e 97 0b 74 3e
       -0.40119788 -0.25322652 0.4796486 0.23832546
0000e0 b0 85 8f be 53 f4 ea bb c7 d7 61 be 7b 49 65 be
       -0.28031683 -0.007170239 -0.22054969 -0.22391312
0000f0 63 6a 6a bd 5c 70 01 bf 2f 22 01 3f 90 9a 19 3e
       -0.057230365 -0.5056207 0.50442785 0.15000367
000100 7b 20 12 bd ee af 6c be 15 a9 51 3e 27 6c e7 3c
       -0.035675507 -0.23113987 0.20474656 0.028249813
000110 68 d0 bb 3e bf a0 08 3e 85 d1 8e 3e 2c 43 2e 3d
       0.3668244 0.1334257 0.27894226 0.04254453
000120 91 c9 5b 3e de 36 d3 be 55 20 a3 be 11 52 c2 3e
       0.2146361 -0.41252798 -0.31860605 0.37953237
000130 84 32 05 bf 25 d8 1f bf 81 2a 79 3e 2c e6 d4 be
       -0.52030206 -0.62439185 0.2433262 -0.41581857
000140 7a ce dc be c2 cb cb be 61 13 9a 3e 5f d1 1d be
       -0.4312628 -0.39803892 0.3009291 -0.154119
000150 41 ad 26 be 44 34 50 3d 1f b1 a6 be f3 d2 13 3e
       -0.16277029 0.050831094 -0.32557008 0.1443594
000160 b3 81 1b 3e d9 d5 01 bc da d9 79 3e e5 50 16 3e
       0.15186195 -0.00792452 0.2439951 0.14679296
000170 ad 66 54 3e c3 be 6c 3e 26 bd 62 be a5 a4 d4 3c
       0.20742293 0.23119645 -0.22142467 0.025957415
000180 69 8f 18 3e 88 07 2e be c3 14 7a 3e d2 3f 47 3e
       0.14898457 -0.1699506 0.24421982 0.1945794
000190 69 97 76 ba 1a 6b d6 3d 10 04 db bc 8b a3 ac 3e
       -0.0009406717 0.10469647 -0.026735336 0.33718523
0001a0 d3 d3 9f bd 35 ab 92 3d 03 ca 9d 3e 31 30 05 3e
       -0.07804074 0.071615614 0.30818185 0.13006665
0001b0 01 6b 15 be db 75 01 be 18 7b 08 3f 0f 27 04 be
       -0.145916 -0.12642615 0.53312826 -0.12905525
0001c0 c9 64 d4 be 65 7e 08 3e e2 74 fa 3d ac 16 da be
       -0.41483143 0.13329466 0.12229325 -0.42595422
0001d0 48 b5 af 3e 29 9d 47 3e f0 2b 04 bf 32 e3 04 be
       0.34317994 0.19493546 -0.51629543 -0.12977293
0001e0 bf 40 5d be e8 c9 60 be cf 1b 0f 3f 69 70 d4 be
       -0.2160673 -0.21952021 0.5590181 -0.41492012
0001f0 49 35 b5 bd 52 3e 09 3f 7f 1a 6e be 0e 20 28 3f
       -0.08848054 0.5361072 -0.23252295 0.6567391
000200 0d 03 34 3e 1f 2e da be 79 83 2a 3f 8a ff d5 3d
       0.17579289 -0.42613313 0.6660686 0.10449131
000210 41 68 4e bf 27 d9 05 bf 4f b4 62 3e 41 cc bf 3e
       -0.8062783 -0.52284473 0.22139095 0.3746052
000220 38 c5 03 be f8 a8 e2 3e 58 c2 b7 3e f6 57 9b 3e
       -0.12868202 0.44269538 0.3589046 0.30340546
000230 4c 8e 63 be d2 d6 f8 be ad 59 df 3d d9 35 e6 be
       -0.2222225 -0.48601395 0.10905776 -0.44962958
000240 1e f8 02 3f ac f7 77 3e d9 fc 0f be 2e 68 ac be
       0.51159847 0.24215573 -0.14061297 -0.33673233
000250 f5 3f 83 3e cd 1d b1 be d3 bf a9 be fa ef 5f be
       0.25634733 -0.3459305 -0.33154163 -0.21868888
000260 52 5c e1 bd 5a 65 ea bd ff 53 5c 3e 01 6f 1b 3e
       -0.11003937 -0.114451125 0.21516417 0.15179063
000270 5a 60 a2 be 20 9f 4d bf 77 42 71 be 10 d9 55 be
       -0.31714135 -0.8032093 -0.2356051 -0.20883584
000280 8c d4 8d bf b7 32 dd bc 4a e7 ef be 6c f5 54 bb
       -1.1080489 -0.027001722 -0.46856147 -0.0032494916
000290 3d 86 4a 3c c4 a2 70 3e 47 e0 36 3e f0 c1 81 ba
       0.012361106 0.2349959 0.17858993 -0.0009899717
0002a0 22 ad ff be b0 18 ca 3e 42 11 9d 3e 26 28 c9 bd
       -0.49936777 0.3947196 0.3067723 -0.09822111
0002b0 50 b0 4d 3e 25 df 9b be c5 2a 93 3d 1f 0e b1 be
       0.20086789 -0.30443683 0.07185892 -0.34581086
0002c0 f0 69 4f 3e 4b 38 01 3e 40 93 b9 3e bf a9 b5 3c
       0.20255256 0.1261913 0.36245155 0.022175668
0002d0 ea f5 f4 be 73 c3 49 3e 42 66 d7 3d a3 40 a3 3e
       -0.47843868 0.19703464 0.10517551 0.3188525
0002e0 24 5b c8 bd 86 d8 89 3e a6 b1 91 3c 9b e9 30 be
       -0.09783009 0.26923007 0.017784905 -0.17276613
0002f0 cf 7a b0 bc 50 a0 5d 3e ff da ce be 24 66 69 be
       -0.021542935 0.21643186 -0.40401456 -0.2279287
000300 3e 3d 5d be 8b fc ba be 1b 9e cf be 83 ba db 3e
       -0.21605393 -0.365208 -0.40550312 0.42915735
000310 db c7 7f 3e 42 23 f5 3e 11 ba 1a 3e 72 67 7a be
       0.24978583 0.47878462 0.15110041 -0.24453524
000320 17 9f 5f 3e de d2 81 bd a3 5d 4c 3d 42 70 57 3e
       0.21838032 -0.06339048 0.049893986 0.21038917
000330 67 83 e1 bd 9f cb d1 be 4e 19 78 3d 5b 0c 44 bd
       -0.11011391 -0.40975663 0.060571007 -0.047863346
000340 01 ce d4 be 9c af f9 bd 64 63 12 3f 17 b3 00 3f
       -0.41563419 -0.12191698 0.5718291 0.5027327
000350 d3 fa 84 be f7 27 04 3e cc 0b b0 3e 91 12 cc bd
       -0.25972614 0.1290587 0.34384 -0.09964479
000360 f1 ef 4c 3e bd e4 34 3d db 98 66 3e ea 3f b0 be
       0.20013405 0.044163454 0.22519247 -0.34423763
000370 89 b5 b8 be d2 f6 45 be 28 73 69 3e 7b 9a 8c be
       -0.36076 -0.19332436 0.22797835 -0.2746161
000380 b9 a3 41 3d e2 d6 0d 3b 9f 76 21 3f 61 f4 08 be
       0.04727528 0.0021642973 0.63071626 -0.13374473
000390 cd 43 2b be 06 96 93 3e ee 4f da 3e 35 8a 68 3e
       -0.16725083 0.28825396 0.42639107 0.22708972
0003a0 31 41 15 bf 62 62 29 be 8e 6b 4a bc 7d 01 50 3e
       -0.583026 -0.16541436 -0.012354745 0.20313068
0003b0 17 c5 35 3e 6f 5a 32 3d e5 d5 d0 be f5 02 aa 3e
       0.17750965 0.043543275 -0.4078819 0.3320538
0003c0 c0 85 fa bd 61 69 e0 bd c7 6d b4 be e4 2f 4f 3d
       -0.12232542 -0.109575994 -0.35240003 0.05058278
0003d0 08 71 e9 3c aa 92 00 be a3 25 a7 3e ce 42 b4 3e
       0.02849628 -0.12555948 0.32645902 0.35207218
0003e0 f2 70 a1 3e 02 e8 1c 3e b3 ec 24 3e 2f 98 bf 3d
       0.31531483 0.15322879 0.16105919 0.093551986
0003f0 cd b5 12 3d 59 93 0a bf 51 60 76 3e cc 4f 91 be
       0.03581791 -0.54131085 0.2406018 -0.28381193

encoder.0.bias f4 [32]
000000 1b a4 a4 3d be 2c 38 3d 5a 5c 55 3d 03 87 ec 3e
       0.08039113 0.044964544 0.052090026 0.46196756
000010 5c 02 c3 3c 0b 57 ec bc c5 66 68 3d 6f 99 b7 be
       0.023804836 -0.0288501 0.056738634 -0.35859248
000020 ef 6a cd 3e d4 f2 c9 3e 77 43 ac be 19 57 b6 be
       0.40120646 0.39443076 -0.33645222 -0.35613325
000030 2e 6d c1 3d 43 58 98 3e b0 8d 3d bd 17 33 19 bc
       0.094446525 0.29754838 -0.0462777 -0.00935056
000040 65 36 ee 3e 22 6c 1c 3f f0 12 10 bb 0d ae b4 bd
       0.46525875 0.611025 -0.0021983944 -0.0882226
000050 ba ee c4 bc 2c ed 73 3e c9 7d 73 3e 1b a6 58 be
       -0.024039615 0.23820943 0.23778452 -0.21157114
000060 58 f7 cb 3e e1 16 79 bd 55 c6 71 3e 49 f8 b6 be
       0.39837146 -0.060812835 0.23610814 -0.35736302
000070 58 47 97 3e e7 70 64 3b 5d 3c 06 3c 85 2c 66 3d
       0.29546618 0.0034857334 0.008193103 0.0561948

encoder.2.weight f4 [64, 32, 3, 3]
000000 2b 9d d4 3d 4c 7c de bc 90 e3 e9 3d f5 4a 28 3e
       0.1038154 -0.027158879 0.11420357 0.16434844
000010 bf 0a f7 bd 5f d2 80 3d d1 f8 bb 3d 21 d2 1e 3b
       -0.120625965 0.06290125 0.09178317 0.0024234133
000020 7f 59 89 be 05 67 2e bd 9d 7e 27 bd 0f 2a a6 be
       -0.26826093 -0.042578716 -0.040892232 -0.32453963
000030 ef bc 82 3d e3 8c aa bc 4b 3f 33 be d5 43 e5 3d
       0.063836925 -0.020819133 -0.17504613 0.111945786
000040 65 67 dd 3d 68 c1 16 bd 1c c3 f2 3d 58 7c 6a bd
       0.108107366 -0.03680554 0.118536204 -0.05724749
000050 a9 2e c4 3d bd 90 c3 ba 47 2e c7 bd a7 e1 4b 3b
       0.09579212 -0.0014920455 -0.097256236 0.003110984
000060 43 a2 88 3d a0 92 50 bd f8 ad b7 3d ef 9b a1 3e
       0.06671574 -0.050921082 0.08968729 0.3156428
000070 03 54 7e 3e 81 79 cb 3b ac 8e 26 3e 1b 67 8a 3d
       0.24836735 0.0062095528 0.16265363 0.06757947
000080 a3 83 c0 3e 95 ee da 3d ee fe 0f 3f 79 5f 56 3e
       0.3760043 0.10690037 0.56248367 0.20934857
000090 f1 b0 3b bd 04 2d a3 bd b4 69 ad 3d 5e 8b 1f 3e
       -0.04582304 -0.079675704 0.08467427 0.15580508
0000a0 53 63 b4 bd b9 48 55 3d f4 2f f3 bd ef 85 3c bd
       -0.08808007 0.052071307 -0.11874381 -0.046026167
0000b0 ed 5a d4 bc af 10 d3 bd 1b ee a9 3d 3b f1 66 bc
       -0.025922263 -0.103059165 0.08297368 -0.0140956
0000c0 53 e7 cd 3e 5b 7c c9 3d 16 ce 00 3d 04 22 cc 3e
       0.4021555 0.09838172 0.03144654 0.39869702
0000d0 79 c2 cf 3d 1d 0f 99 be 74 25 1f 3e 6d a0 5a 3e
       0.101445146 -0.29894343 0.15541631 0.2135026
0000e0 0d d4 c0 bd 75 1e 1c 3e ff 02 b7 3d 45 4c 89 3e
       -0.094154455 0.15245993 0.08936118 0.26816002
0000f0 15 72 0e 3e a8 bd fd 3e 50 e5 14 3e 56 72 75 3d
       0.13910706 0.4955876 0.14540601 0.059923492
000100 e4 b2 a7 bd 08 20 bc bc 6c 10 71 3d 11 c4 78 3d
       -0.081884176 -0.022964492 0.05885355 0.06073386
000110 37 1b 76 3b e8 3d cf bd c2 04 a9 3c 3a d4 29 3e
       0.0037552842 -0.101192296 0.020632152 0.16584864
000120 26 91 85 3d 46 36 d1 3d 81 8a 0d 3d c4 9f 36 be
       0.065218255 0.1021543 0.034555916 -0.17834383
000130 24 a3 aa bc d8 34 1b 3e b2 4e 7e 3e 7a 49 0b 3b
       -0.020829745 0.15156877 0.24834707 0.0021253512
000140 52 6b 74 be 99 aa 09 bc 76 20 16 3e 1a 80 b9 3c
       -0.23869064 -0.00840249 0.1466082 0.022644091
000150 ea 0f 3f be 8c 87 04 be 00 fb ca bd e8 7a 3c 3c
       -0.18658414 -0.12942332 -0.09911156 0.0115039125
000160 a5 21 3e be db 01 fe 3d f3 23 a0 3d a5 0f a1 bc
       -0.18567522 0.12402698 0.07819357 -0.01966078
000170 a5 9f d9 bd c8 52 51 3d c5 f7 06 3d bd 9e 0c 3d
       -0.10626153 0.051104337 0.032951135 0.034331072
000180 2b 58 a4 bd d2 bf d2 bc 19 e0 da 3d 18 20 ee 3d
       -0.08024629 -0.025726233 0.106872745 0.11627215
000190 19 4d 9d bc ba 46 8c bd 05 55 2b 3d 9e a5 a2 3d
       -0.019201802 -0.068494275 0.041829128 0.07941745
0001a0 34 2a cc bd db 07 f7 bd 0e 8a b2 3c c6 2e eb 3d
       -0.09968987 -0.12062045 0.021794345 0.11483531
0001b0 a0 a2 af be 44 a8 9a bb 80 63 a6 bc 6a 24 df bc
       -0.3430376 -0.004719766 -0.020311117 -0.027239043
0001c0 32 45 c8 be b3 9a 1e bd 9e 90 12 bd 0d 11 63 be
       -0.39115292 -0.03872175 -0.03578245 -0.22174473
0001d0 35 05 a0 be 00 d1 f5 bd 51 0d da 3d 88 e2 a0 3d
       -0.31253973 -0.12002754 0.10647071 0.078557074
0001e0 e4 38 72 3e 51 23 0d 3d 0d 2a 5b 3e ef ed 9f bc
       0.23654515 0.03445751 0.2140276 -0.019522635
0001f0 81 fa cb 3e 3e a4 19 bd 93 df fd bd 60 f7 aa bc
       0.39839557 -0.03751015 -0.12396159 -0.02086991
000200 df 9c 33 3d 16 4f 6d 3e 2f 34 43 bf eb ef 80 3c
       0.043850776 0.231747 -0.762515 0.015739402
000210 54 be 50 bd dc 38 24 3c 9c 9d 3f bf 8f ea 0e 3e
       -0.05096276 0.010023322 -0.7484987 0.13956665
000220 38 49 ff 3b 1e e8 5e be c0 4b ea 3d 3c f9 19 3e
       0.007790711 -0.21768233 0.114402294 0.15036482
000230 ae b9 7b bd e3 c4 62 3d d1 db fa 3d aa bd c9 bd
       -0.061456375 0.055363547 0.12248958 -0.09850629
000240 3e 1e 88 3d da d0 8d 3d 19 3f 68 3d e2 b5 5b 3d
       0.06646393 0.06924601 0.0567008 0.053640254
000250 e7 05 32 3c 01 15 8e 3d 7a 84 a5 3d ca 4f 4e 3e
       0.010865665 0.069376 0.080819085 0.20147625
000260 5f f9 db be 21 d9 75 3d b5 26 3f 3e 45 1e 73 3e
       -0.42963693 0.060021523 0.1866711 0.23742016
000270 fa 4c ea bd 80 8a a4 3d 4c 08 9d 3d 39 32 9d 3e
       -0.11440463 0.08034229 0.07667598 0.3070238
000280 97 b5 4b 3d 52 ab 80 be 9c 47 ad bc 96 e7 eb bd
       0.049733724 -0.25130707 -0.02115231 -0.11518781
000290 23 fb 8e 3d ae 13 e6 3d 41 9d 7d 3c fe 7e 7f 3c
       0.06981494 0.11234222 0.015479387 0.015594242
0002a0 38 99 04 be 6c cc ef 3d f2 ea d6 3d ad f1 56 3b
       -0.12949073 0.11708912 0.10494031 0.0032797859
0002b0 b9 c3 88 3c 51 94 ec bd 9d 21 3a 3d f0 90 b1 3c
       0.01669489 -0.115517266 0.045442212 0.021675557
0002c0 4a 68 58 3b 5f a9 f0 bd 95 6a b2 bc e3 13 48 3e
       0.0033021146 -0.11751055 -0.021779338 0.19538836
0002d0 b6 cd e3 bd d5 88 03 be 00 59 c2 3d c1 26 3e 3e
       -0.111232206 -0.12845166 0.09489632 0.18569471
0002e0 c8 e1 15 3d d0 f4 4b 3b 42 19 bf bd 51 ce 95 bd
       0.036592275 0.0031121261 -0.093309894 -0.07314742
0002f0 db 04 f7 3d f0 33 ab bd d3 2e 63 3e 88 b4 9d 3d
       0.12061473 -0.08359516 0.22185831 0.07700449
000300 29 01 cb be 79 4b 98 be 2d e3 3f be 0c 15 b2 bd
       -0.39649323 -0.2974508 -0.18739004 -0.086954206
000310 69 6c 93 3c 68 9c 09 3d cc bc 96 bc 76 88 73 bc
       0.01799603 0.033596426 -0.018400572 -0.014864078
000320 5e 0a 46 3d 7f e1 09 3e 8b 69 94 bd 65 41 ac 3d
       0.04834973 0.13464926 -0.07246693 0.084109105
000330 6f 21 95 bc da bc ca 3d 24 ba d7 bd 67 95 43 be
       -0.018204419 0.09899302 -0.105335504 -0.19099961
000340 16 7e f9 3b 0d e3 38 be b4 5a 3a bc b1 63 24 3e
       0.0076139076 -0.18055363 -0.011374164 0.16053654
000350 97 5d f2 bd bd 1c 3b be 51 55 46 be 70 d3 12 bd
       -0.11834257 -0.18272682 -0.19368483 -0.035846174
000360 20 ff a5 bd 9f f3 34 3d 6d 69 f6 3d 8b b8 aa be
       -0.08105302 0.044177648 0.12031827 -0.3334392
000370 93 f8 25 be 40 5c 16 bc 40 30 41 3e d9 d4 60 be
       -0.16208105 -0.009177268 0.18866062 -0.21956195
000380 24 10 72 be 28 be 30 bd 66 03 80 bb ea 3c 1d 3d
       -0.2363897 -0.043150097 -0.003906655 0.03838817
000390 72 85 70 3e 1e ec db bb b7 15 0a 3c 78 1b b1 3b
       0.23488405 -0.006711497 0.008428029 0.005404886
0003a0 49 75 5d bd af 2e ba bc 3f 63 06 bf 11 3a 45 3d
       -0.05406693 -0.022727339 -0.5249519 0.04815108
0003b0 11 63 5c 3e 74 33 1a bb f8 d2 ea be c5 2c dd 3d
       0.21522166 -0.0023529204 -0.4586408 0.10799555
0003c0 d2 fb 6d 3e f8 ec b1 be 9a ca 16 bf 08 ea df 3d
       0.23240593 -0.34751105 -0.58902895 0.1093331
0003d0 6d bf b9 bd d5 84 ba bd 43 53 07 3e a2 8d e3 3d
       -0.09069715 -0.09107367 0.13215356 0.11110999
0003e0 2b 55 b8 bc 8d 24 c3 bd ef d7 b4 bb 8d 7e d0 3d
       -0.022501549 -0.09528456 -0.0055189054 0.10180388
0003f0 78 78 1b 3d 6d 23 57 3c a0 f7 fc 3d c9 8a a8 bd
       0.037956685 0.013131005 0.12351918 -0.08229596

encoder.2.bias f4 [64]
000000 51 90 b3 bb 73 e9 89 bd 9b 1a ce 3d 55 70 b4 bd
       -0.0054798503 -0.0673398 0.10063668 -0.08810488
000010 b6 18 68 3d db 75 8c 3d 6a 40 14 3d 59 c6 17 bd
       0.05666419 0.06858417 0.036194243 -0.037054393
000020 fe 74 84 bd c9 19 9e bc 69 53 57 bd a9 2f 4a bd
       -0.06467627 -0.019299405 -0.05256978 -0.04936186
000030 86 91 15 3d 5a c7 58 3b e7 b3 3f 3d 3a 41 35 3c
       0.036515735 0.0033077807 0.046802428 0.0110629145
000040 f9 15 83 3d 35 fa 35 3d 78 29 7d bd 98 9d 99 3d
       0.06400675 0.04442807 -0.061807126 0.07500762
000050 9a 5a a7 bd fa f5 28 bd 9b 4c 28 3d a7 07 d6 3d
       -0.08171578 -0.041250207 0.04108868 0.10450678
000060 85 7a a7 3d f9 f6 5b bd b4 7e dc bc 46 b7 87 3d
       0.081776656 -0.05370233 -0.026915886 0.066267535
000070 76 1d d6 bc ff 3f 4c bd dc ef 5d bc f0 43 cc bd
       -0.026137095 -0.04986572 -0.013545956 -0.099738955
000080 b8 2e 93 bd 53 89 3f bc 34 35 61 bd 22 2a 06 3d
       -0.07186645 -0.0116904555 -0.05498238 0.032755025
000090 2a 1e da 3c 56 42 10 3d 4c 20 91 bc 0b 1b a3 bd
       0.026625711 0.035219513 -0.017715596 -0.079641424
0000a0 3c b2 9f 3d 65 ed 72 3d 26 42 a5 bd 0c 54 f1 3b
       0.077976674 0.05930843 -0.080692574 0.0073647555
0000b0 f6 a3 2a bd d4 c2 91 bd b7 0b ce 3c 75 d3 2b 3b
       -0.04166027 -0.07117239 0.02515207 0.0026218568
0000c0 de 78 a4 bd 11 c8 3d 3d d6 74 8d 3d 9a df d0 bc
       -0.08030866 0.046333376 0.0690705 -0.025497247
0000d0 7e 72 87 bc d0 31 49 bc 72 26 bb bc 5b 7c 9a 3c
       -0.016534086 -0.012279943 -0.02284548 0.018858125
0000e0 54 d8 d7 bc da 96 80 3c 87 f9 87 3d 5d 81 c2 3c
       -0.02634827 0.015696932 0.066393904 0.023743326
0000f0 cd f4 2f 3d 6e ff 2e bd c0 8b a6 bd 07 40 e1 3c
       0.04295807 -0.042724065 -0.08132124 0.02749635

encoder.4.weight f4 [128, 64, 3, 3]
000000 82 a2 ce 3c 0b 27 e3 3c c8 79 df 3a d5 19 da bd
       0.025223974 0.027728578 0.0017049843 -0.10649458
000010 f6 58 a5 3d 5a e9 2d 3e 21 f3 8b bd 72 5d b8 be
       0.080736086 0.16983548 -0.068334825 -0.36008793
000020 89 08 1d 3d 7d 9c 31 be 2c ab 38 be 75 96 b8 3d
       0.038338218 -0.17344852 -0.18034047 0.090130724
000030 e8 f1 87 be b4 cd c2 3a 1a 69 c9 3c 22 3a 02 3d
       -0.26551747 0.001486233 0.02458625 0.03179372
000040 7f 99 3c bd d9 25 c5 3d 93 97 87 bd 43 6f f8 3d
       -0.046044823 0.096263595 -0.06620707 0.121305965
000050 88 12 14 3d 6d ab 2a 3c b7 25 93 bd ef 6f d2 3d
       0.036150485 0.010416848 -0.07184928 0.10275256
000060 5f a1 94 3d 11 d3 10 bc e6 0f 58 be 32 2c 38 3e
       0.072573416 -0.008839385 -0.21099815 0.17985609
000070 67 0d a1 3c b7 9d 7b 3c b3 9a 82 3c 69 89 1a be
       0.019659711 0.015357426 0.015942907 -0.1509148
000080 00 9e 71 3d f2 7e 35 be 34 c5 b8 3d 17 63 3d 3e
       0.05898857 -0.17724207 0.090219885 0.18494831
000090 84 0e 42 be d7 b5 fa 3c 2a e4 6e 3d 4e 86 95 bd
       -0.1895085 0.030604286 0.058323063 -0.07301007
0000a0 13 d2 5f 3d f7 eb 71 3d 98 38 ab bd 28 23 d0 bd
       0.0546437 0.059062924 -0.08360404 -0.101629555
0000b0 b8 bb 84 3d 5c af 9e 3c 57 0b d5 3d cf f0 40 be
       0.06481117 0.019370727 0.104025535 -0.18841861
0000c0 ed 5c b2 bd 25 8b b3 bd a3 db 03 bd f4 48 87 3d
       -0.087091304 -0.08766774 -0.032191884 0.066057116
0000d0 85 24 a2 3c 59 42 42 be 2a c9 a9 3d 61 3f 5d bd
       0.019792804 -0.18970622 0.08290322 -0.05401552
0000e0 64 f2 8d 3d 14 1f 58 bd c6 d7 00 bd 83 24 23 be
       0.06930998 -0.052764013 -0.031455778 -0.15931897
0000f0 9d f1 f4 3c 9d 8b 87 3d 7a 94 79 be 29 2d 53 bc
       0.029900366 0.06618426 -0.24373046 -0.012889185
000100 5f 91 f7 3d 20 2b bb 3c cf 0d 53 bd c9 a8 1d 3d
       0.12088274 0.022847712 -0.05152684 0.038491044
000110 96 02 ea 3d 79 45 16 be 3d cd 03 3e 8a 5d ef 3b
       0.114262745 -0.14674939 0.12871261 0.007304852
000120 6f 5d 0f 3d f0 d8 1b 3e 2d 63 d8 bd 84 86 40 bb
       0.035001215 0.15219474 -0.10565791 -0.0029377053
000130 f4 f3 3e bc d7 6b 8b 3d 63 87 31 be 00 23 36 be
       -0.011654843 0.06807678 -0.17336802 -0.17786789
000140 5f d8 1c 3e 38 86 0a 3d 26 1e de 3a 47 50 1c bd
       0.15316914 0.033819407 0.0016946241 -0.038162496
000150 41 c1 04 bd 7d 9c 94 3b 9b e7 b6 3a 7e a6 21 3d
       -0.032410864 0.0045352564 0.0013954522 0.03946542
000160 62 79 a8 bc 5a 48 45 3e 7d 89 cd bd 9e 88 7f bd
       -0.020565692 0.19265881 -0.100359894 -0.062386148
000170 8a 7d 11 bc 30 30 40 3b 3a 38 1b 3d 48 08 99 3c
       -0.0088800285 0.0029325597 0.03789542 0.018680707
000180 36 8d b0 bd 5b 5d b5 bd 85 48 d8 3d 4c 9f 0e be
       -0.08620684 -0.08855697 0.10560707 -0.13927954
000190 b5 9d 4e be f8 05 e6 3d e7 e5 05 3d 59 6f e9 3b
       -0.20177348 0.11231607 0.032689955 0.0071238694
0001a0 04 48 1f 3d a3 3d cd bd ff 84 1e bb f2 9e 11 3e
       0.03888704 -0.10021522 -0.0024188159 0.14220789
0001b0 d4 83 d8 3d f6 40 9f bd 11 97 be 3d be b8 a6 bd
       0.10572019 -0.07776062 0.093061574 -0.081407055
0001c0 3c 09 90 bd f8 09 df bc cd 1a c3 3c 12 0e a9 be
       -0.07033011 -0.027226433 0.02381649 -0.33018547
0001d0 55 ec eb 3c 6f cd 19 3d 70 96 41 3d 81 33 a1 3d
       0.028799215 0.037549432 0.04726261 0.07871152
0001e0 86 c8 41 3d 1e 4f 28 bc 31 c5 a1 3d 0e 9f b4 bd
       0.047310375 -0.010272769 0.078989394 -0.088194
0001f0 9f 3b 9c bc 84 b4 00 bd ad 01 42 be da fc 86 3c
       -0.019071398 -0.031422153 -0.18945952 0.01647799
000200 67 6d 92 be 4a 2b 22 bd ef c7 67 bd f6 aa 10 3d
       -0.28599092 -0.039592065 -0.056587156 0.03531929
000210 c4 cf 5f 3c e9 6a 05 bd 9e 82 d4 3c af 17 d9 3d
       0.013660375 -0.03257266 0.02594119 0.106002204
000220 fc 51 9e bc 16 88 e0 bd 95 ea a9 bc 7d 3d 8f bd
       -0.019326203 -0.10963456 -0.02074174 -0.0699415
000230 8f 69 03 3b f1 26 cf bc 3a e4 f1 bc ae a7 0f 3e
       0.0020051931 -0.025287123 -0.029527772 0.14028808
000240 c6 11 b8 3e db e4 92 3c 55 39 96 3d 6a 2d 33 bc
       0.3595106 0.017931392 0.07335154 -0.0109361205
000250 3d f5 a2 3d ec 83 c1 3d 49 b8 7b bd 1e 72 0e bc
       0.07956932 0.0944899 -0.061455045 -0.0086942
000260 41 51 45 3e 0f ae 4f 3d 9d 7d 29 be b5 38 4a be
       0.19269277 0.050703105 -0.16551824 -0.19748195
000270 ef 62 fd bd 44 78 23 be c0 04 d0 bd 19 16 f9 3c
       -0.12372386 -0.15963846 -0.10157156 0.030406045
000280 90 c6 85 be 71 1a 71 3c cd 73 b9 3d c7 83 5e bf
       -0.26128054 0.014715777 0.0905529 -0.86919826
000290 dd 12 0c bd d7 70 a5 bd 6c d9 ff bd fa 3e 28 bd
       -0.034197677 -0.08078163 -0.12492642 -0.041075684
0002a0 aa c4 01 3d c4 61 54 be ed 21 9b 3d ad 3d 66 be
       0.031681694 -0.2074042 0.0757483 -0.22484465
0002b0 9e a5 23 be b5 40 01 3e 5a a3 c2 3d b9 4c f1 3d
       -0.15981147 0.1262234 0.09503813 0.11782212
0002c0 a7 34 d6 3d a0 cb 01 bc e4 c5 87 3d c3 8f 9a 3d
       0.104592614 -0.007922083 0.066295415 0.075469516
0002d0 c5 aa 92 3d e4 1b bc be 18 52 ec bd a2 2b ac bc
       0.07161478 -0.3674003 -0.11539096 -0.0210169
0002e0 16 37 50 bf 70 bb 49 3d 1b b8 05 3c 73 32 9d be
       -0.81334054 0.04925102 0.00816157 -0.30702552
0002f0 da 84 ae bc d4 47 1c 3e 5d 06 fa 3d 79 93 66 3d
       -0.021303583 0.15261775 0.12208245 0.056292985
000300 bb 07 09 be 03 6a 1c 3e 8f 61 52 bc ae 12 24 bd
       -0.13381855 0.15274815 -0.012840643 -0.040056877
000310 dc 69 8f bd 9e 43 a8 3d 13 12 34 bc d1 d3 47 bc
       -0.07002613 0.08216022 -0.010990637 -0.012196497
000320 14 2d 01 3d fb 06 58 3c 56 1d a3 bd cd e4 c1 3d
       0.03153713 0.013185258 -0.0796458 0.094674684
000330 31 87 33 be be 63 70 bc 56 88 1f 3e 47 35 e7 bc
       -0.1753204 -0.014672218 0.15579352 -0.028223647
000340 97 fa 76 bd eb 07 10 3e f6 a8 ae 3c 8e 34 4f 3d
       -0.060297575 0.1406552 0.021320801 0.05058723
000350 55 78 de 3d 4e b9 11 bd 0e 8f 7a bd 59 59 03 3e
       0.10862795 -0.03557711 -0.061171584 0.12827052
000360 87 8d a1 ba 29 dc 7f be d7 54 b7 3d 24 42 92 bb
       -0.0012325504 -0.24986328 0.08951729 -0.004463451
000370 08 12 9b 3d a8 ec 2e be 82 67 18 bc 95 24 27 3c
       0.075717986 -0.17082465 -0.009302022 0.010201593
000380 f6 4c e1 bd 5c d1 82 3d 56 6e 84 bd 62 14 09 bd
       -0.11001007 0.063875884 -0.064663574 -0.033466704
000390 57 73 26 3e 67 92 2d 3d 7a d0 84 3d 57 87 92 bd
       0.16254936 0.04237595 0.06485076 -0.0715472
0003a0 28 07 c5 3d cf 32 a7 3d 6d 7d 27 be 34 77 af be
       0.096205056 0.08163988 -0.1635644 -0.34270632
0003b0 9a 29 0c 3e aa c8 fe bd 9c 18 1c be 0b 30 3c 3e
       0.13687745 -0.124406174 -0.15243763 0.18377702
0003c0 f9 0a 01 3e f6 2d 40 bd af 75 c7 3d 06 27 58 3d
       0.12601842 -0.04691883 0.09739243 0.05277159
0003d0 f6 6c a5 be 09 5f 03 3d df 8a 87 bd 9f cd 0b 3c
       -0.32309693 0.032073054 -0.066182844 0.008532911
0003e0 80 cc b3 3d 90 ff df bd 5f d7 8f bd e4 4c 96 bb
       0.0877924 -0.109374166 -0.07023501 -0.004586803
0003f0 d3 f2 25 3d c4 d1 f5 38 03 ad 9d 3d 3d dd d6 3c
       0.04051478 0.00011721582 0.07699015 0.026228542

encoder.4.bias f4 [128]
000000 11 6d bc bc a2 09 03 bc 67 02 0c 3d 69 99 1c 3d
       -0.023001226 -0.007997902 0.03418198 0.03823224
000010 c1 a1 8b bd 6d 42 65 bb 2c 53 6a 3c b0 a9 a5 bd
       -0.068179615 -0.003498222 0.014302056 -0.08089006
000020 2a 44 5f bd c2 d2 24 bd 92 8b 11 bd a9 92 55 bc
       -0.054508366 -0.040240057 -0.035533495 -0.013035455
000030 82 a5 01 3d de 20 8f bd 74 f8 24 bd b0 3f cf bc
       0.03165198 -0.06988691 -0.040276006 -0.025298923
000040 d0 a4 84 bd ef e3 9e 3d 4f f5 eb bc d9 5f 49 bc
       -0.06476748 0.07758319 -0.028803496 -0.012290918
000050 78 35 01 bd 6f 00 aa 3a f1 58 db bc f1 6e 21 bd
       -0.031545132 0.00129701 -0.026775809 -0.039412443
000060 19 70 ad 3c 7d 1e c4 3c 75 25 89 3c 70 01 a4 bd
       0.021171616 0.02394032 0.016741494 -0.08008087
000070 79 ac 9e 3a 1a 5d fd 3c 59 83 90 3d 48 a5 ed 3c
       0.0012105844 0.030928183 0.070563026 0.029009476
000080 4d 38 fe 3d 98 67 03 3b 0f db c8 bc 8b b8 80 3d
       0.12413082 0.002005076 -0.024518518 0.06285199
000090 78 e2 f4 39 e5 72 e7 3d d4 6f d4 bd 85 58 61 3d
       0.0004670804 0.11301211 -0.10372892 0.05501606
0000a0 08 36 c9 bb fa 26 58 bb 20 07 ef 3b 60 83 a5 bc
       -0.006140474 -0.0032982216 0.0072945505 -0.020204246
0000b0 23 69 a1 bd b2 b4 7c bd b2 b1 d7 bc c0 f1 43 bd
       -0.07881381 -0.061695762 -0.026329849 -0.047837973
0000c0 08 fe cd bd 6e a4 d3 3d 1d a7 6f 3c ab 25 6b 3c
       -0.10058218 0.10334097 0.014627245 0.014352242
0000d0 e6 e0 36 bc 42 44 ac 3d 17 7b 01 3d 7a f7 b0 bb
       -0.011162018 0.08411457 0.03161153 -0.0054005953
0000e0 1c 53 d6 3b 88 26 66 3d 69 eb 01 be 34 65 78 bb
       0.006540669 0.05618909 -0.12687458 -0.0037902119
0000f0 03 72 6d bc ce 32 98 3d dc ea 6b bd c4 d6 47 bd
       -0.014492515 0.07431565 -0.057597026 -0.0487888
000100 14 b0 83 bd 7f ad 85 3d 0e b3 c9 bc 9c ec be bc
       -0.064300686 0.065272324 -0.024621513 -0.023306184
000110 e2 04 c0 3c 49 6b f6 3c 07 5c fa 3c 15 ae e1 bc
       0.023439828 0.030080454 0.03056146 -0.02754883
000120 5b 2d 44 bd 53 cc d7 3c d0 99 55 3c 68 26 64 bc
       -0.047894817 0.026342547 0.01303716 -0.013925172
000130 c9 0e eb bb 46 d0 31 bd 83 7e 80 3d 79 9b 74 bd
       -0.0071733934 -0.043411516 0.0627413 -0.059718583
000140 ce e9 50 3d 6b a8 fd bc 0a 5b 2e 3c 29 5d 32 bd
       0.051004224 -0.030964097 0.010641823 -0.043545876
000150 0b 62 ae bc f5 e0 e2 3b 81 df f4 bc 4a b6 dc 3c
       -0.021286985 0.0069237896 -0.029891731 0.026942391
000160 79 22 a8 3c 1e 6b e0 bb cf 86 9a 3d 5c d8 91 bc
       0.02052425 -0.006848707 0.07545244 -0.017803364
000170 ae 2c ad bc 3b 61 31 bc 8e d6 84 3b e6 eb c0 bc
       -0.021139469 -0.010826404 0.004053897 -0.023549985
000180 11 86 89 bc 47 25 9a bb d9 68 da 3c 6f 06 b7 bd
       -0.01678756 -0.004704151 0.026661323 -0.08936774
000190 e5 53 60 bc 66 cc 40 bd 4d 45 0c 3e 44 ab 0b bd
       -0.013691877 -0.04706993 0.13698311 -0.03409888
0001a0 95 d5 92 bd 39 5d 79 3c 5b 17 c7 bd 83 4a d1 3d
       -0.07169644 0.01521998 -0.097212516 0.1021929
0001b0 70 6a a7 3c da 62 1f bd f6 e9 8a 3c 7e 33 25 bd
       0.020436496 -0.03891263 0.016957264 -0.04033231
0001c0 d0 c3 47 3d 7c 56 36 bd e9 e2 fc 3c 20 74 62 3a
       0.048770726 -0.04451607 0.030869918 0.000863852
0001d0 a7 2e dd bc df 17 a4 3b 6c f9 52 3c ce 77 b3 bd
       -0.026999785 0.0050077285 0.01287685 -0.08763085
0001e0 7d 2f d8 bd f6 d2 80 3c e8 3b 33 bd ad 43 45 bb
       -0.10555933 0.015725594 -0.043758303 -0.0030100152
0001f0 a7 7a 03 bd af 15 01 3d 46 1e a3 bd fe 00 8c 3c
       -0.032099392 0.03151482 -0.079647586 0.017090317

decoder.0.weight f4 [128, 64, 3, 3]
000000 de 13 ba 3e a2 07 1c 3e 6e 43 7e 3e 70 e0 f5 3c
       0.36343282 0.15237287 0.2483041 0.030014247
000010 24 26 84 3d 4b e0 a1 bc 7c 1a 0f 3e 6b cd da 3d
       0.06452587 -0.019760272 0.13974947 0.106837116
000020 da 8a 4f bd ed 1f 46 3e 95 89 a2 3d 2a 6b 41 3e
       -0.05066953 0.19348116 0.07936398 0.18888536
000030 f8 cc 03 be a6 97 71 bd 7a 73 6e be fd 83 be bd
       -0.12871158 -0.058982514 -0.23286238 -0.093025185
000040 6b 93 2b bc dc 50 30 3e b1 73 b3 3d 87 49 e1 3d
       -0.010472159 0.17218345 0.08762301 0.11000352
000050 6f 38 49 3d ea cb a9 3e 88 8d 89 3c 28 3c 9e be
       0.049126085 0.33163387 0.01679112 -0.3090527
000060 e1 80 05 3e 21 d8 f1 bd 2c b3 b9 3d 9e f4 f9 3b
       0.13037445 -0.118088014 0.090673774 0.0076280376
000070 61 5c 8e 3e a7 b9 f4 3c 8d bf 89 be 40 82 ba 3c
       0.27804855 0.029873682 -0.26903954 0.022767186
000080 b6 94 ba 3d a4 7a 38 3d 8a fc 7e bd 87 8e 55 bc
       0.091103956 0.045038834 -0.06225256 -0.013034469
000090 ae 80 10 3d 92 cc f2 3c 10 b1 8a bd e9 e8 46 3c
       0.03527897 0.029638562 -0.06772053 0.012140491
0000a0 59 76 e2 bd 29 c0 e5 3d d4 ce 4d 3d ff 33 99 bd
       -0.11057729 0.11218292 0.050246075 -0.074806206
0000b0 c4 6f d7 3c 68 45 a2 3d 3a 0b 3a 3c 20 97 ab 3d
       0.026298411 0.079233944 0.011355216 0.08378434
0000c0 c8 43 28 b9 a1 4e c9 3d 48 de 7d bd a2 04 99 3c
       -0.00016046979 0.098294504 -0.061979562 0.018678967
0000d0 a8 63 7a bc 16 66 99 3d 0d 22 c6 3d 99 9c 46 be
       -0.015282549 0.074901745 0.096744634 -0.19395675
0000e0 9c 42 80 bd 4d 87 82 bd 85 6f 12 3e 65 b0 cd 3b
       -0.06262705 -0.06373463 0.14300354 0.0062771314
0000f0 ed 21 30 bd c3 2a 4c 3e 05 92 5f be 5f 02 eb 3c
       -0.043001104 0.19938187 -0.21833046 0.028687654
000100 ad a6 1a bd d6 45 b2 3c f9 c0 71 3d c0 75 83 3d
       -0.03775661 0.021761816 0.059021924 0.064189434
000110 51 43 c9 bc 72 f2 ac 3e a4 2f 4e 3e 81 5d a0 3e
       -0.024568232 0.3377872 0.20135361 0.31321338
000120 29 ca 15 be 03 81 2b be c3 87 6c 3d e2 94 30 3e
       -0.14627899 -0.16748433 0.05774666 0.17244294
000130 16 bd 7d bd d1 19 cc 3d e6 62 00 3e 4d 8b 93 3d
       -0.061947905 0.099658616 0.12537727 0.07204304
000140 1d bc 6f bd 5a f0 eb 3d bd 8b b6 bb 59 59 51 be
       -0.05852901 0.11520453 -0.0055708573 -0.2044424
000150 96 38 50 bd 5d dc 78 3e a8 e0 3e bd 6d f1 53 3d
       -0.050835215 0.24302812 -0.046600968 0.051743913
000160 2f d6 32 be 54 17 67 bd 2d 94 98 bc 86 be 4c 3d
       -0.17464517 -0.05641873 -0.018625343 0.049986385
000170 f4 d7 80 3c 80 ec 18 3e 2e c4 69 bd 6b 48 ae 3d
       0.015727974 0.14933968 -0.057071857 0.085099064
000180 8e f9 38 bd 7f 2d da 3c d8 df 31 be 7b ab cf bd
       -0.04515987 0.026633022 -0.17370546 -0.10140129
000190 08 64 c3 3d 2d 1b 87 be 66 19 49 bd 12 6f 3d bd
       0.09540564 -0.2638792 -0.049096487 -0.046248503
0001a0 1d 17 e0 bd 87 46 a1 bd fd 7b 11 3e 72 40 73 bd
       -0.109419085 -0.0787478 0.14207454 -0.05938763
0001b0 4c 28 57 3d 76 4f 82 3e 34 25 0e 3d b5 f5 09 3e
       0.052528664 0.2545125 0.03470345 0.13472636
0001c0 4f a5 0f 3e 8d f9 43 3e f8 f5 18 3e 49 7f 3f be
       0.14027904 0.19138165 0.1493758 -0.18700899
0001d0 a3 29 8e be 36 1a a6 bd 90 c5 05 3e e7 dc 5a 3c
       -0.2776614 -0.08110468 0.13063645 0.013358331
0001e0 2f 72 17 bd 08 8f 4f be b6 64 15 3d 28 00 e4 bc
       -0.03697413 -0.20269406 0.036473 -0.027832106
0001f0 b5 f1 01 be df b3 6f bd 50 b5 59 be 02 50 72 3c
       -0.1268986 -0.058521148 -0.21260571 0.014789583
000200 9c 9c 03 be be 43 09 be 29 9c 5e 3e f6 ba ef 3d
       -0.1285271 -0.13404748 0.21739258 0.11705582
000210 75 2b 44 be 96 80 77 be be cb 40 bd 53 25 52 3d
       -0.19157203 -0.24170145 -0.047069304 0.051305126
000220 fa fa 2f bd b7 85 5d be 36 e8 f4 bd a6 72 9f 3d
       -0.04296396 -0.2163304 -0.11958353 0.07785539
000230 87 8e 01 3d db 05 5e be db 7b 62 3e 6d e8 25 be
       0.031630065 -0.21681921 0.2211756 -0.16201945
000240 a1 ed 3e 3d 26 81 82 bc 87 e0 2c bd 08 ac b4 3d
       0.04661334 -0.015930723 -0.042206313 0.08821875
000250 36 f7 93 3b 50 4d 6e bd 17 07 83 3d b3 31 4c bc
       0.004515554 -0.0581792 0.06397837 -0.012463021
000260 24 9f 72 bd 2f ce 06 bd 65 09 da 3d 41 64 5a 3e
       -0.0592338 -0.032911476 0.10646323 0.21327306
000270 77 f5 80 3d 10 9d 2f 3e df 96 be 3d 3e a7 85 3e
       0.06296819 0.17149758 0.0930612 0.26104158
000280 db 03 84 bd 88 51 4d bc 04 64 92 3a 9d 8e cb 3d
       -0.06446048 -0.012531646 0.0011168723 0.09939311
000290 14 91 ef 3d ad 4d 28 3d e1 9d 11 be 53 03 9e be
       0.11697593 0.041089702 -0.14220382 -0.3086191
0002a0 82 ee 7d bd fb 9c f4 bc 81 69 9a 3e 51 51 bf 3c
       -0.061995037 -0.02986001 0.30158618 0.023354204
0002b0 c0 39 7c 3e bf d3 c2 bc 36 90 2d 3e 3e e6 5d bd
       0.24631405 -0.023782609 0.16949543 -0.054174654
0002c0 35 0c f8 bb 7d ea c4 3c df e0 27 be 2e cc 80 bd
       -0.0075698146 0.024037594 -0.16394375 -0.06288944
0002d0 80 3a 36 be c8 e4 30 3d 8a 60 f1 bb 3e 9d 62 3d
       -0.17795753 0.043186933 -0.0073662447 0.05532574
0002e0 ac 7d 3b 3d f1 34 c4 bc 56 da 8e bd d6 62 cc be
       0.045774147 -0.023951026 -0.06975238 -0.39919156
0002f0 72 4f f0 bc 3c 0e 92 bd 1a 0e 19 3d f0 97 d6 bd
       -0.029334757 -0.07131621 0.037366964 -0.104781985
000300 c4 1b f7 bd eb 0a 80 bd 9b 11 50 3c c7 b3 5a 3e
       -0.12065843 -0.062520824 0.01269951 0.21357642
000310 7f f8 cb bc a2 b1 36 bd d7 6e 97 3e 16 c2 59 bc
       -0.024898766 -0.044602998 0.29576752 -0.013290903
000320 d0 3a 85 bd 45 47 cc 3d b6 0b 1f 3e 69 b1 b1 3c
       -0.06505358 0.09974531 0.15531811 0.021691041
000330 9a 60 22 be 58 8e 9a 3c c9 b6 c3 bd 7d b8 b3 bc
       -0.15857163 0.018866703 -0.09556348 -0.021938557
000340 1d 98 81 3d 2c fb b7 3d 64 92 9a bd 30 e5 40 bd
       0.063278414 0.08983454 -0.07547453 -0.04709357
000350 24 e8 81 bc 69 bf 14 bc 51 6e 51 3d 89 47 4b bd
       -0.015857764 -0.009078839 0.051130597 -0.049628768
000360 a0 5f c7 3d cc 30 84 be f7 55 0c 3e 0c c3 ba 39
       0.09735036 -0.2581848 0.13704668 0.00035622006
000370 d7 24 bf 3d 4c 55 6e 3e 21 b6 a3 3e 6c 05 80 3c
       0.093331985 0.23274726 0.3197489 0.015627585
000380 be e5 53 be 62 fc 2b be a3 12 9e 3d ac e1 a3 bd
       -0.20693108 -0.16795495 0.077183984 -0.08002028
000390 56 ec c3 3c 10 d6 84 3d 92 71 e7 3c 65 2b 15 be
       0.023916405 0.06486142 0.028252397 -0.14567335
0003a0 39 f2 61 be ba 4b 41 3c 33 0d ea 3d ac d1 89 3d
       -0.22065057 0.01179784 0.11428299 0.06729445
0003b0 77 e9 b6 bc 28 0b 22 3e 6e bb 20 be 60 2d 5a 3d
       -0.022328122 0.15824568 -0.15696499 0.05326593
0003c0 b2 39 c8 3d 50 a5 2d 3c b6 b8 86 be 4e ae d9 bd
       0.097766295 0.010598496 -0.26312798 -0.10628949
0003d0 3a 6a 46 3d 63 f2 77 3e 3f 94 8d bc 13 65 ef 3d
       0.04844115 0.24213557 -0.017282603 0.116892
0003e0 94 dc fd 3d 94 44 a1 bd 33 d0 a9 3c 60 ed 11 3e
       0.123955876 -0.07874408 0.02072916 0.14250708
0003f0 88 d2 fd 3c 1a f1 07 3e 7d f8 91 be 44 77 0c 3e
       0.030984178 0.13275567 -0.28509894 0.13717371

decoder.0.bias f4 [64]
000000 65 23 55 3c f2 cb cc 3c 9a 33 b1 bd 2b 25 45 3d
       0.013008927 0.024999592 -0.0865242 0.04813115
000010 3d 63 2d bd 41 9d a1 bd 0c 09 92 3d 64 0e 9b bc
       -0.04233097 -0.07891322 0.07130632 -0.01892776
000020 4a cb 03 3d 31 8b 3f bd b2 0a 8f 3d a1 9c 99 bd
       0.032176293 -0.046763603 0.06984462 -0.07500578
000030 f5 ea 96 bd 4c 39 fe ba 6c 9e 10 be a6 46 8a 3c
       -0.07369033 -0.0019395738 -0.14122933 0.01687939
000040 fd 03 91 bc f9 f5 f2 3c 49 46 ff ba cb 75 0f 3d
       -0.017702097 0.029658305 -0.0019475903 0.035024446
000050 01 b2 26 bd e9 9f 54 3d d5 ae 13 bd 16 bf cf 3b
       -0.0406971 0.051910315 -0.036055405 0.006339918
000060 eb ee 31 bd de dc 9e 3d 6d 33 90 3c 0b e6 39 3d
       -0.04344074 0.07756971 0.017602647 0.0453854
000070 7c 68 99 3c 5a 96 54 3d 27 31 8c bd bf b8 29 3d
       0.01872658 0.0519012 -0.068453126 0.041435953
000080 a3 9a 9f bd 77 21 ab 3c df b1 06 bd b0 6c 0b 3c
       -0.077931665 0.02088998 -0.032884475 0.0085098
000090 71 d6 d1 3c bb a2 44 bd 99 31 36 bc 55 ec 0a bc
       0.025614949 -0.048006754 -0.011120223 -0.0084791975
0000a0 61 1f b4 bd ea 03 19 bd 01 2b 0d 3c 2b 37 50 bd
       -0.087950476 -0.03735725 0.00861621 -0.050833862
0000b0 9d bf 40 3d c6 e1 91 3c 1d a5 19 3d de 49 0f 3c
       0.047057737 0.017807852 0.03751098 0.008745639
0000c0 4d 17 e9 bc 7e 0b 98 3b 7a 09 12 bd f7 86 b3 bd
       -0.028453493 0.004640042 -0.03565357 -0.08765977
0000d0 b4 b4 ef 3b b6 d6 32 bd 43 68 14 bd 16 23 43 bd
       0.0073152427 -0.043661796 -0.036232244 -0.047640882
0000e0 0e 1f d3 bc 2a 43 b1 3d b5 55 a4 bc 13 81 27 3d
       -0.025771644 0.08655389 -0.0200604 0.04089458
0000f0 c9 a8 46 bc f8 b7 b0 3c cc 6c b4 3d 77 17 e9 bb
       -0.012125202 0.021572098 0.08809814 -0.007113393

decoder.2.weight f4 [64, 32, 3, 3]
000000 c8 ff 54 3d 6e f0 25 3e 1b fd 7b bd 35 5b 45 bd
       0.052001745 0.16204998 -0.061520677 -0.048182685
000010 08 82 bd bd 0d 0e b5 3d 1b a1 2a bd e3 e0 81 bd
       -0.09253317 0.088405706 -0.04165755 -0.06341722
000020 80 d7 12 bd 80 96 46 3c 2c 0b 84 be da 0a 36 3e
       -0.035850048 0.012120843 -0.25789773 0.17777577
000030 13 cf 8d be a0 d9 13 be fb cc 17 3e b8 99 cf 3c
       -0.27697048 -0.14438486 0.14824288 0.025341853
000040 be d3 19 b9 45 23 8b bb 2b 5d 69 3e 2d a9 e1 bd
       -0.00014670097 -0.004246148 0.22789447 -0.11018596
000050 a5 e6 26 3c 66 bc 78 3e 8f 30 c2 3d 3d f4 44 3e
       0.010186826 0.24290618 0.09481918 0.19233795
000060 db 3b 07 3e b3 16 50 bd f2 6a ea 3c f7 59 60 bd
       0.13206427 -0.050802898 0.028615449 -0.054773297
000070 b1 1c 26 bd 9d ff 44 3d 9b 8e 91 3d f1 8a 8a 3e
       -0.040554706 0.048095334 0.07107278 0.2705913
000080 25 f6 49 be 8f 9f 65 bc 7d 8f 06 3d 72 f6 c6 3d
       -0.19722803 -0.0140150925 0.032851685 0.097149745
000090 53 2f f0 bc fa 4b 55 3e 99 c4 9b bb 5c 4f 0f 3e
       -0.029319441 0.20829764 -0.004753661 0.13995117
0000a0 f2 69 11 3e 7a a4 22 3d 34 36 b5 3d c7 24 8d 3e
       0.14200571 0.03970764 0.08848229 0.2756712
0000b0 e3 0e 9b bd 01 74 20 3d 0c b1 ce bc a5 d4 80 be
       -0.07571199 0.03917313 -0.025230907 -0.25162235
0000c0 05 fa c9 bd ee bc f9 3c 42 e5 41 3e 78 fc ed bd
       -0.098621406 0.030485597 0.18935111 -0.1162042
0000d0 08 89 de bc b5 8c 48 bd 3e da ab 3d 7d 2c 27 3e
       -0.027164951 -0.048962314 0.08391236 0.16325565
0000e0 dc 46 0e 3e e6 0c 04 3e 3d 71 b3 3d d7 87 5b 3d
       0.13894218 0.12895545 0.08761833 0.053596344
0000f0 3f 8e 5e 3d ad dd ea bd 82 df 00 bb f0 fd 06 be
       0.054334875 -0.114680625 -0.001966447 -0.13182807
000100 1f be 62 3d f3 59 03 3e c1 e6 1c 3e 92 a7 82 be
       0.055357095 0.12827282 0.153224 -0.2551847
000110 7a fd 65 bd 9c f7 a1 3d 56 9b b1 3d ed f1 db bd
       -0.056149937 0.07908556 0.08672206 -0.10739503
000120 d2 a4 86 3d f9 04 c3 3d 50 3b c2 3d d4 e6 96 3d
       0.06574406 0.09522433 0.09483969 0.07368246
000130 68 9c d9 3d 85 50 e1 3d 73 14 8b 39 6b 66 81 bd
       0.10625535 0.11001686 0.00026527382 -0.06318363
000140 d5 51 21 be fb e1 08 3e d1 81 a4 3c 27 8b 87 bd
       -0.15753873 0.13367455 0.020081433 -0.06618338
000150 ef 07 88 bc aa 54 3b 3c 3c 55 e6 3d d9 ab 31 3e
       -0.016605346 0.01143376 0.11246726 0.17350711
000160 1c 63 87 3e 6e 60 21 3e 40 57 3d bd ee 00 34 be
       0.26442802 0.15759441 -0.046225786 -0.1757848
000170 3b 11 4b be 3f ba f9 3d 1e 46 7f 3e a3 fb 1e 3e
       -0.19830792 0.12193727 0.24929091 0.1552568
000180 28 cb bf 3d 0e 66 ca 3d 2e 2a 17 bd 29 28 fb 3d
       0.09364921 0.09882747 -0.03690546 0.12263519
000190 04 af 2a 3e f1 b1 13 3d 90 26 bb bc 83 f6 19 3e
       0.16668326 0.03605837 -0.022845536 0.15035443
0001a0 eb 9b ad 3d 2b ad 75 3d e2 53 a7 3c b0 93 77 3d
       0.084770046 0.0599796 0.02042574 0.06044358
0001b0 0c a7 92 3d 0b 0c 17 3e 9f 5f de 3d a4 57 8e 3c
       0.07160768 0.14750688 0.10858082 0.017375775
0001c0 dc 2e 04 be 47 b9 8a 3d cd 31 e8 bd 73 cc af be
       -0.129085 0.0677362 -0.11337624 -0.3433567
0001d0 97 45 58 3b d0 88 0d bd 97 4c f0 bc 4c d3 67 3e
       0.0033000463 -0.034554303 -0.029333396 0.22639197
0001e0 7e d6 9b bd 4e 24 4d 3e 99 77 36 bd 99 37 27 bd
       -0.076092705 0.2003338 -0.04454765 -0.040824506
0001f0 3d 96 d8 3b 70 c5 10 be 1a af d6 bc 66 27 8a 3e
       0.0066097067 -0.14137816 -0.026206542 0.26983184
000200 4d 68 42 3e a2 7c b5 3d dd 1f 42 3e 35 6c 02 3e
       0.189851 0.088616624 0.18957467 0.1273659
000210 c0 f4 e1 3c 7e 5c a1 3d 15 d1 6f 3d 44 5b 39 3e
       0.027582526 0.078789696 0.058549006 0.18101221
000220 00 ec 96 3d ff f1 a7 3e f3 04 8f 3c b8 3c c1 3d
       0.07369232 0.32801816 0.017458415 0.09435409
000230 41 ca be bc 99 2f 59 bd 18 cd 23 3d ad 0f 1b 3d
       -0.023289802 -0.05302391 0.039990515 0.037856746
000240 b9 f3 a4 bb c0 ae d1 3d 71 0c 3f 3e 49 50 87 bc
       -0.005033937 0.10238409 0.1865709 -0.016517775
000250 9f 4c 7a 3d bc ac 8c 3d c3 83 50 3c 7f 99 06 bd
       0.061108228 0.06868884 0.012726727 -0.03286123
000260 1c 45 62 3c 0f a8 c6 3d 68 dc aa bd cf fc 15 be
       0.013810422 0.097000234 -0.083428204 -0.1464722
000270 85 69 75 3e db 4f ea 3d fa 8b a6 3d b7 eb 42 3d
       0.23966034 0.114410125 0.08132167 0.047588076
000280 71 ec 14 3d 28 a6 ba 3c bf ea 7f be 87 59 75 bd
       0.0363583 0.022784308 -0.24991892 -0.059899833
000290 1c 9c 67 3d 38 9b 47 3e 76 15 77 bd 57 dd b1 3d
       0.056545362 0.19492805 -0.0603232 0.08684795
0002a0 af ed 69 bd 7e 58 55 3d ba 0f 90 3e e7 4f c2 3d
       -0.05711144 0.052086346 0.28136998 0.094878964
0002b0 e0 84 cc bc 95 b4 04 3d 18 40 64 3d 34 4e 9b 3c
       -0.024965703 0.03239878 0.055725187 0.018958189
0002c0 d8 8c 04 be 81 05 14 be 41 75 63 bb 36 7f 34 3d
       -0.12944353 -0.14455225 -0.003470734 0.04406663
0002d0 ed d0 26 3d f3 2f 88 bd fe 83 78 be 3b 93 d3 bc
       0.04072659 -0.066497706 -0.24269101 -0.02582704
0002e0 6b 3e 0e bc 11 85 15 3e 09 74 e4 bd e4 c2 46 3e
       -0.008681874 0.14601542 -0.111549444 0.19410282
0002f0 90 98 19 3e 20 04 83 3d b6 a1 92 3d e8 f4 b2 3d
       0.14999604 0.06397271 0.0715975 0.087381184
000300 f0 6c df 3d ac e4 10 3e a1 dc 0b 3e 66 69 d4 bb
       0.1090945 0.14149731 0.13658382 -0.006482291
000310 10 a7 e4 3d 17 28 93 3c 8e ac 0f be 08 b8 c1 bd
       0.11164677 0.017963452 -0.14030668 -0.09458929
000320 7b 07 93 3d cf 31 88 bc 3f 2b a7 3d 9a 8e 58 bd
       0.07179161 -0.016625313 0.081625454 -0.05287037
000330 f3 41 4a be d8 c3 89 3d 05 8a 96 bc 2f b5 81 3c
       -0.1975172 0.06726807 -0.01837636 0.015833465
000340 e9 ff 80 bc 17 36 91 bd d7 04 9c be fb 31 16 3e
       -0.015747027 -0.07090395 -0.30472443 0.14667504
000350 83 49 8d 3b c4 c0 9b 3d 64 9c bd 3c ec aa c1 bd
       0.004311742 0.076051265 0.023145862 -0.09456429
000360 ae e7 53 bd 91 2f 25 bd 02 92 7a bc cb 51 3e be
       -0.05173462 -0.040328566 -0.0152936 -0.18585889
000370 7e 92 2d bd ec 11 93 3d 27 8c 7d bd 3d 99 8b bd
       -0.042376034 0.07181153 -0.061901238 -0.06816337
000380 42 95 1c bd a5 ab fd bd d9 87 d9 bd 07 12 81 bd
       -0.03822828 -0.12386254 -0.10621614 -0.063022666
000390 ba 57 28 bb c1 3c cf 3d 64 e4 5b 3e 51 f1 68 be
       -0.0025687055 0.1011901 0.21473843 -0.22748305
0003a0 ca 94 03 be 43 e0 1c bd ad 36 1b 3e 09 d0 fc 3d
       -0.12849727 -0.03829981 0.15157576 0.12344367
0003b0 51 9e 4e 3d 1d 5f 54 3c 35 63 d4 3d d2 61 8e 3c
       0.05044395 0.01296213 0.10370485 0.017380629
0003c0 b4 86 df 3c f9 3e 43 bd 46 1f 1e bd db d3 f4 3d
       0.027285911 -0.047667477 -0.038604043 0.11954471
0003d0 0f 2d 06 3e b2 88 34 3e e7 65 3f bd 59 ef e3 bc
       0.13103126 0.1763027 -0.04672804 -0.02782409
0003e0 a3 2c 41 3e 34 67 e6 3d 71 70 bc 3d f5 78 94 3d
       0.18864684 0.11250153 0.09201134 0.07249633
0003f0 82 53 c1 bd cf 5e dc bb 30 7b a6 bb fc 02 74 be
       -0.09439756 -0.0067251693 -0.005080603 -0.23829263

decoder.2.bias f4 [32]
000000 46 90 1f bd 20 7f 99 bc c2 85 b5 3c 70 34 41 3c
       -0.03895595 -0.018737376 0.022158507 0.011792287
000010 cb 1c cc 3c 25 8f 03 be 45 e1 ae 3d 95 44 07 bc
       0.024916073 -0.12847574 0.085390605 -0.008256097
000020 f8 b4 99 38 75 5e 9a bd 17 25 7f bc fd 88 98 bb
       7.3293166e-05 -0.075375475 -0.015572808 -0.004655002
000030 6f 75 5a 3c 6f 78 36 3d 3f 0a ef 3c 3b 86 1b 3d
       0.013333662 0.04454845 0.02917969 0.03796981
000040 39 ae d4 3c d4 e5 7d bd 82 d5 83 bd 24 09 17 3d
       0.025961982 -0.06198676 -0.06437208 0.03687395
000050 68 56 92 bd 6b 22 0c 3e f6 59 20 bc 69 b3 c5 3d
       -0.07145387 0.13685004 -0.009787073 0.096533604
000060 42 e8 38 bd 43 82 cd 3d ce 0d 6c 3d 40 04 48 bd
       -0.045143373 0.10034611 0.057630353 -0.048832178
000070 c6 81 b3 bc 3a 57 09 3d 78 42 29 3d fb 9a 09 bc
       -0.021912467 0.03353045 0.041323155 -0.008398767
