experiments/cnn_10_epochs.pt (torch, 744882 bytes, 11 tensors)

encoder.0.weight f4 [32, 1, 3, 3]
00000000: ecb5 9c3e 9a12 033f f59b f53e ccdc a1bd
00000010: 238e 143d 016f 653e ff98 c0be e9b1 d6bd
00000020: 7fa0 d5bd 8894 d63e b5c6 3dbe 4532 f5bd
00000030: 557a 49be 2824 dd3e cb01 c8bd 3aa9 8ebe
00000040: 70a5 f0bd 8669 ffbd 8fd4 d0bd ac7f 293e
00000050: bc7c 9e3e b6f8 33be 2bef d63e 6d94 92bb
00000060: b330 5f3e 033a bf3e 0ff7 09bd cb29 c7be
00000070: 8c40 2d3d aafe dabe 6077 3f3e 2a1c 16be
00000080: b0bc 173e b08f 63be c895 5dbc 614f 9abc
00000090: 0fc4 163e 3e2c 23be 6754 843e a2d4 da3d
000000a0: 5d80 a13e 5ccf cb3e da77 fabd f231 3e3e
000000b0: dea2 f1bd f93b 46bd f793 5bbc 5c58 8c3e
000000c0: b068 a83e c267 c63d a7e7 edbc 31dd 87bd
000000d0: c8f5 89be 46b8 15be 8cc7 d03e 96c9 e43d
000000e0: 48c0 4ebe 8eb1 48bd f558 b8bd f666 4cbe
000000f0: 554f 843c 4b56 cabe c832 b33e 01a7 5f3e
00000100: 5342 ea3d 9145 d7bd e584 993e 77dd a73d
00000110: 03a4 d13e a834 033e b0a6 a83e 236a e43c
00000120: 0c3d ea3d e462 62be dad3 8dbe 6ca6 4d3e
00000130: 284c bbbe aea7 27be 01a1 043e 52a8 23be
00000140: 2335 94be f6cb 80be 80c7 743e 7396 fcbd
00000150: c4c3 b4bd c5f7 653c 1ded 69be b2b8 113e
00000160: 1276 c93d fc84 ab3b 3183 993e 2cc2 433e
00000170: 9d8f 893e 3472 b93e bb6b a7bd 06b1 033e
00000180: 82fb 6f3e ee6a 4ebd b317 a33e 5ab5 8e3e
00000190: 2897 f23d 5061 1e3e da6b 0b3e e62c c93e
000001a0: 348e 07bd 588a 203e 75d6 d03e e20a 0b3e
000001b0: 73f8 b4bd 838e 12be 24cb bc3e dc4b dabc
000001c0: ac0d 89be b8c9 8b3d 0ce7 0d3d a3b3 9cbe
000001d0: 41e6 a93e ac89 103e 7ba9 acbe ded2 2bbd
000001e0: 2d14 debd 9af0 39be d823 cb3e b7a7 b5be
000001f0: fa73 42be 254f de3e dca3 40be af5e c93e
00000200: a48d 273e 01a2 9abe 88da e63e 00ec debd
00000210: c394 f6be 53c1 b7be 743e 773e 8c83 ec3e
00000220: c23c 5ebd b877 e93e c726 df3e 552b 9e3e
00000230: 710a 31be e969 72be ce9b 423e 5b25 a9be
00000240: ffb3 ed3e b0c5 073e 6c5c f8bd ceeb 96be
00000250: 7935 943e d6a7 8fbe 4a9d 9dbe ead4 4bbe
00000260: 6cc8 2ebd 5ee9 81be 9cff 473e ab90 febd
00000270: 536a d5bd 93b2 9bbe e32f 64be 414a c03b
00000280: e8cd d2be 6e69 dfbd f1a4 7dbe 615f 103e
00000290: 85a9 4f3e 2ac2 913e 1257 dd3d 9c32 403d
000002a0: 13ea a8be e203 bd3e 86d8 8e3e d4dd 243d
000002b0: ec23 ab3e cd76 12be a970 853e 046e 26be
000002c0: 9594 613e f0b2 8d3e e784 cc3e 0f20 413d
000002d0: 4742 8dbe 3179 a93e 0a48 bd3e cce9 d33e
000002e0: 477c be3d 33da de3e fa72 f13d 035f c73d
000002f0: b27a d03d 8cfa a13e b6ea 9ebe 1ccb 3bbe
00000300: 06e8 0bbe 63ee 8dbe 0bc3 9dbe 6017 a03e
00000310: 90bc 703d 39cd b63e 8d62 243e 8af3 f5bd
00000320: da24 b93e 5f0d 343c 4120 c53d 98b9 633e
00000330: c57b cdbd dacc 7dbe fff4 2e3e 41bb 203d
00000340: 26f9 6fbe 9688 763d d9d9 f03e ec28 c83e
00000350: 1d21 88be 486f df3d 82c9 873e 9aee 13be
00000360: 3556 443e 7e4e cdbd f78b fd3d 6762 8bbe
00000370: 9848 58be cd83 7cbd bbfd 243e 1881 4cbe
00000380: 31c1 9f3c f85e 593c 13fc 033f e233 5e3d
00000390: f7d8 b33b 4b35 7e3e 2b0b c73e 5f86 5b3e
000003a0: 4ea7 a8be ea63 94bd 0452 71bd 2dc3 313e
000003b0: 4f29 f33d a06c 2c3d d4b5 acbe a52c 903e
000003c0: 4e27 22be 9ef2 473c 9476 6fbe 9a9c 1c3e
000003d0: be39 1f3e cb41 57bc 2ef9 de3e f62d cf3e
000003e0: 0e83 be3e 1313 5f3e 3a84 9e3e b146 143e
000003f0: 6884 cf3d 872d b0be 9111 653e bf97 36be
0.30607545 0.5120026 0.47970548 -0.07903442 0.036268365 0.22405626 -0.37616727 -0.104831524
-0.10431003 0.41910195 -0.18532832 -0.11972479 -0.19675572 0.43191648 -0.09765967 -0.27863485
-0.11750305 -0.12471299 -0.10196792 0.16552609 0.3095454 -0.17575344 0.41979346 -0.00447326
0.21795921 0.37348947 -0.03368288 -0.38899073 0.042297885 -0.42772418 0.18697882 -0.14659181
0.14818072 -0.22222781 -0.01352448 -0.018836679 0.14723228 -0.15934846 0.25845644 0.10685088
0.31543246 0.3980664 -0.12229891 0.1857374 -0.117986426 -0.048397038 -0.013401977 0.27411163
0.3289237 0.09687759 -0.029041125 -0.06633986 -0.2694533 -0.14621076 0.40777242 0.11171262
-0.20190537 -0.048997454 -0.09001342 -0.19961151 0.01615111 -0.3951896 0.3499968 0.2184105
0.114384316 -0.105113156 0.29984203 0.08196538 0.40945444 0.12813056 0.32939672 0.027882641
0.11437425 -0.22108036 -0.27700692 0.20083016 -0.3658154 -0.16372558 0.12952043 -0.15982178
-0.2894679 -0.2515561 0.23904228 -0.123333834 -0.08826402 0.014036124 -0.22844358 0.14230612
0.09836973 0.005234359 0.29982904 0.1911704 0.2686738 0.36219943 -0.08174845 0.12860498
0.23435786 -0.050394945 0.3185402 0.27872735 0.11845237 0.1546681 0.13615361 0.39292067
-0.0330946 0.15677774 0.40788618 0.1357837 -0.088364504 -0.14312176 0.36873734 -0.0266475
-0.26768243 0.06825584 0.03464417 -0.30605802 0.33183482 0.14115018 -0.33723053 -0.041949145
-0.10843692 -0.18158188 0.39675784 -0.3547952 -0.18989554 0.43419757 -0.18812507 0.3933005
0.16362625 -0.30201724 0.450886 -0.10884857 -0.4816037 -0.35889682 0.24144918 0.46194112
-0.054257162 0.4559915 0.43584272 0.30892435 -0.1728914 -0.23673214 0.19004747 -0.33036312
0.4642639 0.13259006 -0.12127003 -0.2947678 0.28947046 -0.28057736 -0.30784065 -0.19905439
-0.042671606 -0.25373358 0.19531101 -0.12429937 -0.1042067 -0.3040968 -0.22283892 0.0058682268
-0.4117272 -0.10908781 -0.24769951 0.14098884 0.2027951 0.28468448 0.10807623 0.046923265
-0.32991084 0.36917025 0.2789957 0.040250614 0.33425844 -0.14303131 0.26062515 -0.16252905
0.22029336 0.2767558 0.39945146 0.047149714 -0.27589628 0.33100274 0.36969024 0.4138931
0.09301048 0.43525848 0.11789508 0.09734919 0.10179652 0.31636465 -0.31038445 -0.18339199
-0.13662729 -0.27720937 -0.30812868 0.31267834 0.058773577 0.35703447 0.16053219 -0.12009342
0.36160928 0.010989516 0.096252926 0.22238767 -0.10033373 -0.24785176 0.17085646 0.03924108
-0.23434886 0.060188852 0.47041205 0.3909372 -0.26587763 0.10909897 0.26520926 -0.14446488
0.1917351 -0.10024737 0.12380212 -0.27223513 -0.21121442 -0.061649133 0.16112415 -0.1997112
0.0195013 0.013267271 0.5155651 0.054248698 0.0054885107 0.24825017 0.38875708 0.21437977
-0.32940143 -0.072456196 -0.058916107 0.1735961 0.11873113 0.04209578 -0.33732474 0.2815906
-0.15835306 0.012203841 -0.23385078 0.15294114 0.1554937 -0.013138245 0.43549484 0.40464753
0.37209362 0.2178462 0.30960256 0.14480092 0.10132676 -0.34409735 0.22369982 -0.17831324

encoder.0.bias f4 [32]
00000000: b20b 1e3e b2b5 c7bd d526 453e 1aaf 543e
00000010: bbd0 213e 98a6 40bd 039c fc3c c95f 96be
00000020: 3b28 733e cd21 b03e a162 56be ec64 8abe
00000030: 6642 003d fb37 743e 44ce 3abd 068d 00bb
00000040: a30b b93e 047a b33e 5b7c d73d fca7 8ebd
00000050: 9d6c 093e 23c7 2f3e ba2b aa3e 3a5e 2cbe
00000060: 6b3b b43e 4d81 77bc 693b 2c3e 8979 92be
00000070: c99e 863e 6af1 473d cc4c 833d 16a1 413c
0.15434149 -0.097514525 0.19253094 0.20769921 0.1580228 -0.047033876 0.030836111 -0.29369953
0.23745815 0.34400788 -0.20936061 -0.27030122 0.031313322 0.2384948 -0.045606866 -0.0019615307
0.3614169 0.35054028 0.10521766 -0.06965634 0.13420339 0.17165808 0.33236486 -0.1683282
0.35201582 -0.015106511 0.16819538 -0.2860835 0.26293018 0.048814215 0.06411132 0.011818191

encoder.2.weight f4 [64, 32, 3, 3]
00000000: cc0d 533d 1115 94bd f5d7 093c ad90 573d
00000010: ab13 e0bd 6e9d fdba ef76 fb3d 0a5e a43b
00000020: dedc 32be fbed 103d 5db2 103d 31f0 a4bd
00000030: 9e9b 813d fe4e 98bd 2489 c63b 4c9f d1bc
00000040: 1097 933b e0fb 5dbd fc54 31bc 19fd 913c
00000050: b939 76bc e48c c6bc 7575 66bc 7387 a1bc
00000060: 58dc 99bb 2361 2e3d 6645 8e3c 8716 493d
00000070: 1031 8e3d 8777 f83d d75a fd3c 538b b03c
00000080: 4784 933e 3d28 043d a15b f33d 9679 043e
00000090: c6c8 48bc deda 9a3a 0000 8239 c5fd 893d
000000a0: 55e9 44bc 8b95 6f3d 3df1 f5bc 87bf 3c3d
000000b0: a82c 22bd ec11 aabd 8ee9 983d ed5c 8e3d
000000c0: 53a5 603e c5bb 543e 1c7b dfba 0b98 1f3e
000000d0: 70fa 8dbd 799a c1bd ba45 df3d b4c5 e23d
000000e0: c24e 36bd f42d bf3d f138 f83d 1d8d a03d
000000f0: 22fb 953d 47ed d53e 6589 21bd f822 813d
00000100: f32b 49bd 0fc4 34bd 066a 6f3d 5a35 803d
00000110: 99f1 a53b c3ce 1fbd 8669 903d 73fb 953d
00000120: 7a72 16bd 8e1b 5b3c e50e 9e3c 7eb3 b9bd
00000130: 10a3 05be 0734 dd3d fc6e f13d 869a 84bd
00000140: 8489 afbd 4d71 e73b ae37 403d ae4c d23d
00000150: 4c86 1fbe b4fc 7bbc 3677 1bbd 6887 ebbd
00000160: 613f 04bd 8f85 ef3d 1e40 493d 2e36 11bd
00000170: 7017 a4bd aafa 663d 42b6 183d bf79 503a
00000180: 681d d03c 23e6 76b8 62a8 703d 522c 913d
00000190: 3f54 0fbd c1a3 a8bd d430 8c3d 300c 983d
000001a0: 470e 9bbd 3855 08bd f3c7 553d 8b90 363d
000001b0: 1372 45be 0d2c 043d 32fb bf3d fd52 60be
000001c0: dfa6 3dbe cc13 85bd fe0e 08be 4d39 4dbe
000001d0: 2713 4bbe 0edf c3bd 124e e03d c0ad dd3c
000001e0: 04b7 45bd db75 3fbc 03cd 863d 501c 77bd
000001f0: b1d8 513e 8116 8e3c 507d debd ecf4 adbd
00000200: fcf8 ca3c 6062 f83d 2946 f1be fa6d 933c
00000210: 19d9 edbc f15d c6bd 58aa b8be 52e7 583d
00000220: f614 5c3c 9449 fbbd a047 be3d d5da df3d
00000230: 8e91 4dbc 42e8 893c 9313 5d3d d3cf 86bd
00000240: 6817 57bd 01fa f83c 7e18 753c 9ce1 533c
00000250: de91 9a3c 51c2 fb3d 7fc2 9cbd 0f21 253e
00000260: da88 92be ec9e 653e 102f 643d 6773 cb3d
00000270: ae14 1ebd 32cd 9bbc f2df 133e 59b8 5a3e
00000280: 0c13 07bd b216 c3bd 648b 21b9 c4a3 9bbd
00000290: 7573 f23c ae26 923d fd0f 55bd aa63 2dbd
000002a0: 3640 a7bd b80a 153c af48 8e3d 280d 6c3d
000002b0: 643d 473d 9d35 98bd 6b0d 9f3d 9202 163c
000002c0: 5e0d 8ebc 5430 94bd 0756 cf3c 7ad6 c13d
000002d0: ae03 ddbc 6843 77bd eded e73c f59b 023e
000002e0: b9e6 ddbc e586 70bc da77 45bd ebda 70bc
000002f0: f446 a63d 0bc7 13bd e17e f63d ea0a 003c
00000300: 956a 4bbe 64ec 54be 2039 0abe 5a9d 413a
00000310: 40a3 7f3d ba07 01bd 899c 2a3d 18e9 ec3b
00000320: 7c9a ee3a 1104 df3d 2894 4fbd 5b24 833c
00000330: b15b 573d 6614 b33c 8528 0abc 6e4d ccbd
00000340: 7877 af3d 400f 90bd f2ea 51bd 9a12 143e
00000350: 4390 a4bd a62d c9bd 71d1 f3bc 0fa2 12bc
00000360: b571 823c 02b0 193d f4f1 203e a523 29be
00000370: 427f a5bd f8b5 1ebd b128 6b3e 584a 09bd
00000380: 125f e5bd e0d7 d03c ffa6 133c f281 9bbb
00000390: 34f4 153e e017 ea3c 44aa e4bc 6c3e 1dbb
000003a0: b4dc f5bb 0904 023d 2fe6 85be 5110 89bd
000003b0: 2351 053e defb 23be 4baa 7dbe 3032 2dbd
000003c0: 073c 78bd 438b afbe a9bd a4be 52ef dc3d
000003d0: e052 73bd 5d29 e9bd 0d45 023e 6433 cc3d
000003e0: 366e adbc 8a6c b2bc f0ab 563d bdb5 083d
000003f0: f6ce e23c 415a 963d a28d 363d ac18 a8bc
0.05152683 -0.072305806 0.008413305 0.052628208 -0.10941251 -0.0019349286 0.12278544 0.005016093
-0.17467067 0.035383206 0.03532635 -0.080536254 0.0632851 -0.074369416 0.006058829 -0.025588654
0.004504092 -0.054195285 -0.0108234845 0.017820882 -0.015028411 -0.024237104 -0.01406609 -0.019717908
-0.0046954565 0.042573106 0.017367076 0.04909375 0.06942952 0.12132173 0.030927105 0.02155081
0.28811857 0.032264937 0.11882711 0.12937006 -0.012254899 0.0011814495 0.00024795532 0.06737856
-0.012018521 0.058492225 -0.030022258 0.046081092 -0.03959337 -0.083041996 0.07466422 0.06951318
0.21938066 0.20774753 -0.0017050239 0.15585344 -0.06932533 -0.094532914 0.10901971 0.11072865
-0.044508703 0.09334937 0.12120236 0.07839415 0.073232904 0.4178259 -0.03943767 0.06305498
-0.04911418 -0.04413229 0.05845072 0.06260176 0.005064201 -0.039015543 0.07051377 0.07323351
-0.036730267 0.013373269 0.019294212 -0.090674385 -0.13050485 0.10800939 0.11788747 -0.064747855
-0.08571151 0.007063067 0.0469281 0.10268532 -0.15578574 -0.015380073 -0.037955485 -0.11500436
-0.032287005 0.11695396 0.049133413 -0.03545206 -0.08012283 0.056391396 0.03728319 0.0007952712
0.025404647 -5.8865302e-05 0.058754332 0.070885316 -0.034992453 -0.082343586 0.06845251 0.074241996
-0.075710826 -0.033284396 0.05219264 0.04457144 -0.19281797 0.032268573 0.093740836 -0.21906658
-0.18520688 -0.064979166 -0.13286969 -0.2004139 -0.19831525 -0.09564029 0.10952391 0.02706039
-0.04827024 -0.011685814 0.06582072 -0.060329735 0.20492817 0.017344715 -0.10863745 -0.08493981
0.024776928 0.121281385 -0.4712384 0.017996777 -0.029034184 -0.09685887 -0.36067462 0.05295498
0.013432732 -0.12269893 0.09291005 0.10930411 -0.01254691 0.016834382 0.053973746 -0.06582608
-0.052512556 0.030392649 0.014959453 0.012932207 0.018868383 0.12292922 -0.07654285 0.16125892
-0.28620034 0.22423905 0.055708945 0.099341206 -0.03859394 -0.019018743 0.14440897 0.21359386
-0.03297715 -0.09525813 -0.00015406084 -0.07599595 0.02959607 0.07136284 -0.0520172 -0.042331375
-0.08166544 0.009096794 0.06947457 0.057629734 0.04864253 -0.07432101 0.07766231 0.009155886
-0.017340358 -0.0723578 0.025309576 0.09464736 -0.026979294 -0.060367018 0.028311694 0.12754805
-0.027087556 -0.014680599 -0.048210002 -0.014700632 0.08119002 -0.036078494 0.12035919 0.007815102
-0.19864877 -0.20793301 -0.13498354 0.0007385813 0.062411547 -0.03150151 0.04165319 0.0072299354
0.0018203999 0.108894475 -0.050678402 0.016008547 0.052577678 0.021860313 -0.008432512 -0.09975706
0.08567709 -0.07034159 -0.051249452 0.14460221 -0.08035328 -0.0982316 -0.029762955 -0.008949771
0.01592336 0.03752137 0.15717298 -0.16517504 -0.08080913 -0.038747758 0.22964741 -0.033518165
-0.11199774 0.025493562 0.009011983 -0.0047457153 0.14643937 0.028575838 -0.02791322 -0.0023993505
-0.0075031165 0.03174213 -0.2615218 -0.06692565 0.13019232 -0.16014048 -0.24771993 -0.04228419
-0.06060412 -0.34285936 -0.3217595 0.10787834 -0.059405208 -0.113848425 0.12721653 0.099707395
-0.021170717 -0.021780271 0.052410066 0.033376444 0.027686577 0.07341433 0.044568665 -0.020519577

encoder.2.bias f4 [64]
00000000: 27a3 1ebb f485 85bd 6305 ad3d 09a7 a4bd
00000010: 49b0 223d da89 203d 0870 583d 9a37 9cbd
00000020: 7e43 84bd 040c f9bc 8bc0 35bd 1b10 76bd
00000030: d3da ae3c 4616 d43c 4fcf 0cbc 8b90 4b3c
00000040: 60ec a63d caae 043d da37 0c3c 4ecd 5c3d
00000050: d659 32bd 7685 c3bc bd0a 383c b1e3 5b3d
00000060: 4e9c 863d 1def ddbc 22b6 e4bb 135a 4d3d
00000070: 7fc9 33bd 138c 6ebd c9a3 683a 963d 9abd
00000080: fbbf 76bd 186a dcbc ec36 3cbd 76db 3f3d
00000090: 22a9 913d d79f 2a3d 027a 033b a698 6cbd
000000a0: 3878 203d 61ca e83c d885 03bd 643c ca3b
000000b0: ca07 1abd a0c6 a33b 327b 97bc 7c75 133d
000000c0: c1ea 87bd d7b2 c13c aeed 7a3d dcab c6bb
000000d0: 0849 123c 7366 e03c c1c4 1bbd 7c44 fb3b
000000e0: 5670 2fbd 618e 713d 814b 263d 45b4 a8bc
000000f0: 3cf5 173d 9609 babc 0370 37bd 3eda 813c
-0.0024206133 -0.0651969 0.08448293 -0.08039672 0.0397189 0.039193965 0.052841216 -0.07627793
-0.064581856 -0.030401237 -0.044373076 -0.060073953 0.021344578 0.025889527 -0.008594348 0.012424598
0.08150554 0.032393254 0.008558238 0.05390673 -0.043542705 -0.02386735 0.011233029 0.05368394
0.065727815 -0.027091557 -0.0069797197 0.05013473 -0.043893334 -0.058239054 0.00088745035 -0.07531278
-0.06024168 -0.026906058 -0.045950815 0.046840154 0.07112338 0.04165634 0.0020061736 -0.057762764
0.03917715 0.028416814 -0.032110065 0.00617175 -0.037605084 0.004998043 -0.018491361 0.036000714
-0.06636573 0.023644848 0.061261825 -0.0060629677 0.008928545 0.027392602 -0.038029436 0.007668076
-0.04283174 0.058973674 0.04059935 -0.020593772 0.037099108 -0.022709649 -0.044784557 0.015851136

encoder.4.weight f4 [128, 64, 3, 3]
00000000: aeff 383d bb35 a7bd 5fa7 0c3d 34ba 24bd
00000010: b1b4 773c 4c0e bf3d 157e 3abb 4d73 b8bd
00000020: 9788 083d cfa3 853c 8dc7 2cbe a040 aebc
00000030: df9e 27bd dba8 1b3c d134 6e3b f674 10bd
00000040: 0987 643d c0d0 833d 1414 36bc 1478 8cbc
00000050: 42ce 3fbc 8e93 35bd 6ef5 04bd de3f ae3c
00000060: f0d0 583d ecab 273d 518b 8cbd a6e0 823c
00000070: 7885 87bc e80c 0c3c b40e 61bc 0b1b 0abd
00000080: e139 af3c 0914 27bd 8e0c b33c f22e f23d
00000090: ef43 21bd 4974 cd3c 9256 d93c 125a ae3c
000000a0: bb39 d13c b500 f33c 62bb c0bd ef8f 2c3c
000000b0: 0dc0 973d 9155 c1bc f9b8 a83d 8757 b43c
000000c0: f3f0 8cbc f618 6abc 326e d23c 94d4 2e3d
000000d0: 574c 373d 470a dfbd 29ba f33a d943 08bd
000000e0: 7914 353d 122a 853b 68fc 83bb 8216 743d
000000f0: bb63 183b 82e1 83bd 4af7 60bd 5fc1 793c
00000100: 81b6 9b3b 22c4 72bc b4d4 06bd 31de afbd
00000110: 7c19 3d3d b431 a1bd 56e3 95bd c660 073e
00000120: 578a 083d 96f2 3a3b b28c 76bd c83d e63c
00000130: 97d6 003b 80e1 b53b 5e38 89bd d618 23bd
00000140: 16a3 263d b382 cd3c 350e 38bd b615 9bbc
00000150: 9bdc 6ebc fbbf a03c 995f 443b 0801 15bd
00000160: 63b8 eebc eabb 563d b39f 4ebc 095f d0bd
00000170: 8dc8 56bd be81 1ebd d101 2b3b b928 063c
00000180: c088 a1bd 7030 373c 909a 883d 2dae ff38
00000190: d259 44bc 40c5 873d abbe 003d 9166 f3bc
000001a0: 7363 483c fba7 ffbc 7334 4bbd 20ab a73d
000001b0: 742d deba 9f9d ebbd 05f6 b5bd 7d9d c93a
000001c0: 9350 c8bd 8030 563d 1c16 38bd 4fe5 9ebd
000001d0: 9c04 cf3d 7733 1a3c c9c5 00bd d01c 253d
000001e0: 2e15 1a3d 5308 9f3c 2b5f 4e3d bddb de3c
000001f0: 191c b5bc 9672 5f3d 1aab 13bd 38e4 e83c
00000200: c836 d73b 1b5e 9dbc 3ebf b93c 401d 193b
00000210: 9d9b 253d f61d cebc 8a89 8c3c 47c6 c8bb
00000220: 86fd b2bd 00bb 5ebc 6709 ddbc 225e b0bc
00000230: 6bf9 6a3d 5e61 0fbc 3952 18bd fcd1 2d3d
00000240: a631 ad3d 1c87 913c 483d 853d 984f 8d3d
00000250: da2a 6b3d e1c5 ce3c 0ae2 b7bd f115 1c3d
00000260: a4c2 d33d d434 cb3c 8f71 8fbe 34f7 93bd
00000270: f440 eebc f4fe 04be 9f6b 8dbc dd94 103d
00000280: a295 a6bc 1417 153d 41c3 193c 287a 24be
00000290: 5046 65bc 6d7b 593b 8516 9cbd d007 5c3c
000002a0: e230 9fbb 4686 92bd b5b8 7e3c b4f3 b7bd
000002b0: 1a5c e5bd 106b c13b 7b84 1f3b 9640 09bd
000002c0: 7137 ab3c 241d 28bd 2ba2 e63b fefc a43c
000002d0: e553 af3c 7da4 90be b188 6ebd 8f0a 90bb
000002e0: 2d67 cdbd 6b77 953d a3e4 0d3d 0f04 dbbd
000002f0: b5d2 1e3d 9e76 853d 48b9 d6bb c6cc 99bc
00000300: 79f5 78bc d2df 783d 77d4 20bc b6c4 d4bb
00000310: fd69 1c3d e72f 493d 575f 79bc 798d 3e3b
00000320: 1076 adbc 811a 983c 1ab0 5d3c 3acb 853d
00000330: b4b9 a4bd bfac 963c bf4d 853d 3838 07bd
00000340: 8bc6 8fbd 1a92 b63d 5dcd 34bd 4faf 353c
00000350: 54ef ac3d 7217 11bd e594 00bd 2f69 333c
00000360: 6bfd 383d 1ade 0bbe 888a c33c afdd 273c
00000370: 7c02 7a3c 51e3 2cbd c1f4 733c 59a5 be3c
00000380: 65fe 62bd 8eb0 933c 42ac 88bd 20cf b93c
00000390: 7b3b 403d 77bf 97bc 9a32 883d f3e9 883c
000003a0: 96bc 433c 24ba aa3d d51e 16be 6e44 a5bd
000003b0: be5d 163e 9bcd 78bd 33f7 41bd 16b4 603d
000003c0: c357 fabc 1e6f b6bd 12b7 223c 281b 613d
000003d0: 1259 95bc f7e5 723d 1ba8 523c 8cda 74bc
000003e0: c9b2 993c 1e01 01bc 861e aabd 6371 8d3d
000003f0: c655 f93c 0b09 353c c317 b13c b64c 72bb
0.04516571 -0.08164545 0.034339305 -0.04021664 0.015118764 0.09328899 -0.0028456498 -0.09006367
0.033333387 0.016313462 -0.16872998 -0.02127105 -0.040922996 0.0095007075 0.00363474 -0.035267793
0.055792842 0.064363 -0.011113185 -0.017147101 -0.011706891 -0.044330172 -0.032460622 0.021270689
0.052933633 0.04093544 -0.0686251 0.015976261 -0.016543135 0.008547999 -0.013736416 -0.033717196
0.021389904 -0.04079059 0.021856572 0.1182536 -0.039371427 0.025079863 0.026530538 0.021283183
0.025540223 0.029663423 -0.094107404 0.010532363 0.07409678 -0.023600372 0.08238406 0.022014393
-0.017204737 -0.014288178 0.02568731 0.0426832 0.044750538 -0.10890632 0.0018594909 -0.03326783
0.044208977 0.004063853 -0.004027892 0.059591778 0.0023252803 -0.064394966 -0.054923333 0.015243857
0.004751981 -0.0148172695 -0.032917693 -0.085873015 0.046166882 -0.07870808 -0.073187515 0.1322051
0.033335056 0.002852594 -0.06019277 0.028105631 0.0019659156 0.0055505633 -0.06700204 -0.039818607
0.040682875 0.025086736 -0.044935424 -0.018931251 -0.014578964 0.019622793 0.0029964207 -0.036377937
-0.029140657 0.052425303 -0.012611317 -0.101743765 -0.052437354 -0.03869795 0.0026093612 0.00818842
-0.07887411 0.011180982 0.066701055 0.0001219179 -0.011984305 0.06629419 0.031431835 -0.029711993
0.012230742 -0.031208029 -0.049610566 0.081869364 -0.0016950802 -0.11504673 -0.08884815 0.0015382018
-0.09780993 0.052292347 -0.04494296 -0.07758581 0.10108301 0.009411684 -0.031438623 0.04031068
0.037617855 0.019413149 0.050383728 0.027204389 -0.022108125 0.054552637 -0.036051847 0.028429136
0.0065678097 -0.019209912 0.0226742 0.0023363382 0.040431608 -0.02516077 0.017155427 -0.006127152
-0.08739762 -0.013594389 -0.026982022 -0.021529261 0.05736677 -0.0087512415 -0.03718779 0.042436585
0.08456735 0.01776462 0.06505829 0.06899947 0.057413913 0.02524084 -0.089786604 0.038106862
0.10339859 0.024805464 -0.28016326 -0.07224885 -0.029083706 -0.12987882 -0.017263232 0.035298217
-0.020335022 0.036398962 0.009384931 -0.16062224 -0.013993815 0.003318514 -0.07621483 0.013429597
-0.004858122 -0.07154517 0.015546967 -0.089820296 -0.111992076 0.0059026554 0.002434044 -0.03350886
0.02090046 -0.041043416 0.007038375 0.020140167 0.021402309 -0.28250495 -0.058235828 -0.00439579
-0.10029445 0.07298168 0.034641873 -0.106941335 0.038775165 0.06516765 -0.006552849 -0.018774401
-0.015195244 0.060760327 -0.009816281 -0.0064931763 0.038187016 0.04911795 -0.015220485 0.0029076023
-0.02117446 0.018567326 0.013530755 0.06532903 -0.080432326 0.018392919 0.065089695 -0.0330126
-0.07020291 0.089145854 -0.044141162 0.01108916 0.08444086 -0.03542275 -0.031391997 0.010950371
0.045163553 -0.13658944 0.023869768 0.010245725 0.015259381 -0.042208973 0.014889897 0.023272203
-0.05541839 0.018028524 -0.066734806 0.022681773 0.046931725 -0.018523915 0.066502765 0.016713118
0.011946818 0.08336285 -0.14660199 -0.080696926 0.14684197 -0.060742956 -0.04735489 0.054859243
-0.030559426 -0.08907913 0.009931343 0.05495754 -0.018230949 0.059301343 0.012857462 -0.014944684
0.01876201 -0.0078738015 -0.08306603 0.069063924 0.030436408 0.011049519 0.021617776 -0.0036971993

encoder.4.bias f4 [128]
00000000: 5481 60bc 1892 0cbb 38ae fb3c b775 253d
00000010: 124a 10bd 8f6b d5bc 0abb 003c 5948 17bd
00000020: 9368 85bd 0641 953c 23fc 36bc 55a5 62bb
00000030: c725 a8bc f6df 11bd dc3f a7ba b92a 4cbc
00000040: 71a9 f9ba 81f3 493d 7ea6 173d 7016 b0bc
00000050: 7dad fb3c fb7f f6bc d4cf 2ebc fcff a8bc
00000060: 6915 233d c840 283c 3492 2f3d 9d32 04bd
00000070: 79ac 9e3a 064c 373c fd3b 4e3d 6caa ea3c
00000080: 6f00 783d a886 f43c bc4b 13bc 218c 833d
00000090: 3197 ebbc 19fd 543d af7d 70bd 6707 153d
000000a0: 1a09 7c3c 68a1 b73c c86e 753c a8d1 6a3b
000000b0: 289e 8a3a eea1 c4bc 7527 403d 0ffb 693c
000000c0: 66ab bbbc 4c9d db3c 1474 c53c 2f92 2e3d
000000d0: f454 953b d6bd 793d 45e9 203c 591f 473b
000000e0: ce4b bc3c 339f 3c3d 949c 25bd d8a0 8b3c
000000f0: 92ea 063c 67a8 253d 50f1 0cbd 1634 3cbd
00000100: 392d 48bd 16b1 50bc 10d8 3b3c 0ddd bbbc
00000110: 9817 f83c 8fc0 283d fe5b 3fbc 3628 a4bb
00000120: 00b9 ecbc 8870 2a3c e581 853b 6e06 c5bc
00000130: 9965 e53c 1bd5 f63b 3bde d13b b162 23bc
00000140: 8121 973c 2fd0 ac3c ba02 7abc 9230 2abc
00000150: 6f44 71bc b0f5 9d3c 0188 763c 9387 6a3c
00000160: 949f 633c 7905 95bc b968 0c3d e281 2e3c
00000170: 4178 84bc ff96 02ba 7095 8c3c 44cf 9b3c
00000180: b5ca 4a3d 11ec 2a3d e598 d23c 142e 9bbc
00000190: fda3 30bc 61fd 41bd 3ff3 fd3c 799b f1bb
000001a0: a746 3ebd 7516 073d c2cb 80bc f811 6d3d
000001b0: 9c9b 323d 4d8b 26bb bc0c fcbc 3093 153c
000001c0: 0ade 003d 99d9 dcbb be0d 46ba 0f45 873b
000001d0: 4d2b 7bbc 5bdd 3f3b abf3 2b3d fd52 08bd
000001e0: f0c7 cebc cfcd 493c a866 cebc 2867 42bc
000001f0: 58c1 1cbd fa05 193d 24cf b1bc 3b5d de3c
-0.013702709 -0.0021449383 0.030722722 0.040395465 -0.03522689 -0.026052264 0.007857094 -0.03693423
-0.065140866 0.018219482 -0.0111685125 -0.003458341 -0.020525826 -0.035613976 -0.001276012 -0.012461358
-0.001904769 0.04930449 0.037024014 -0.021495074 0.030722374 -0.030090323 -0.010669667 -0.020629875
0.03981534 0.010269351 0.04286404 -0.03227483 0.0012105844 0.011187559 0.050350178 0.028645717
0.06054729 0.029849365 -0.008990224 0.06423212 -0.028758617 0.051999185 -0.05871361 0.036384013
0.015383029 0.022415832 0.014980026 0.0035830531 0.0010575699 -0.024002995 0.04691263 0.014281048
-0.022908878 0.026808403 0.024103202 0.04261988 0.0045572463 0.060972057 0.009821241 0.0030383675
0.022985365 0.04605026 -0.040432528 0.01704447 0.008234637 0.040443804 -0.03440982 -0.04594811
-0.048871253 -0.012737533 0.0114650875 -0.022932554 0.030284688 0.041199263 -0.0116796475 -0.0050096763
-0.028896809 0.010402806 0.0040743225 -0.024050917 0.028002547 0.0075327284 0.0064046658 -0.00997226
0.018448593 0.021095363 -0.015259439 -0.010387557 -0.0147257885 0.019282192 0.015047074 0.01431455
0.013893027 -0.018191086 0.03427956 0.010651084 -0.016170623 -0.00049816066 0.017161101 0.01901973
0.049509723 0.041729037 0.025707671 -0.01894287 -0.010781285 -0.04736078 0.030999778 -0.00737327
-0.046454098 0.0329804 -0.01572216 0.057878464 0.043605432 -0.002541262 -0.030767791 0.0091293305
0.031461753 -0.006739807 -0.00075551483 0.0041281055 -0.015330148 0.0029276225 0.041980427 -0.03328227
-0.025241822 0.012317135 -0.025195435 -0.011865415 -0.038270324 0.037359215 -0.021705218 0.027144065

decoder.0.weight f4 [128, 64, 3, 3]
00000000: 122b 133e fafe 50bc 24dd 5ebc 9dec 073d
00000010: 8d0c 57bd 4be0 a1bc acf8 ea3c 735a fa3c
00000020: ae9a a4bd a5d2 c83d 814c e3bc 28a0 bb3d
00000030: 00b8 1ebd 189c 9d3c 09a7 b4bd bae4 0ebd
00000040: c89f 25bd f8b1 08bd e177 2cbd e005 073e
00000050: ad46 9cbd f38e 193e 5814 e0bd f4bf c6bd
00000060: 2617 3e3d fb79 9cbd 2b99 0e3d 0508 813d
00000070: dce0 f13d f0ee d3bc 4afd 08bd 1332 a1bb
00000080: 102c 00bd e97a 5e3d ac8a f3bc 1040 10bc
00000090: 8874 76bc e728 563d 1041 cfbb 3545 b13d
000000a0: e9e3 543d 6e20 b13d 2a96 cb3c 9382 04bd
000000b0: f33e 9abd 1715 1c3d ab65 02bd eaad 933b
000000c0: 18f9 673d dd31 933c 45db b53c b912 a23d
000000d0: c8f1 e53c 6d04 0d3e 3777 ed3c 03cd 06be
000000e0: eb2c f0bd e893 ad3c 26fc bc3d 0e0e 053a
000000f0: 8b67 b9bd 851e 243c b2ea babd ce49 f6bc
00000100: 4eaa 71bc 9807 bd3b 746b 15bc 9b53 b23d
00000110: d8c3 84bc 4782 593e d9cd f4ba 0f47 183d
00000120: 392b debc 0ae2 d9bd 70d4 8e3d 492a dc3c
00000130: 0d51 3dbd 50f5 f73b 7571 1a3d 38a6 35bc
00000140: 8d3a 44bd 19fe df3d 341b bcb9 1384 693b
00000150: 2579 99bd c6c4 c53c ffff e6bd f279 97bc
00000160: 85d8 04bd 6f21 9bbd 5389 e6bc 740b 85bc
00000170: 6b1f 19be fc62 983d 0f40 e53c 1448 053c
00000180: c067 f5bc 5f37 97bc 3d8c f8bc 025a 18bc
00000190: f160 313d 6e5a d0bc 2253 973c fc9b a63d
000001a0: 2b3b 103d 1fbe 79bc 38ce 883d 965d 0dbd
000001b0: 29c2 443c 9c7d 3d3d e1c2 0e3e 12dc 623e
000001c0: f497 24bd c726 6b3d aa5d 2c3e 6808 6cbd
000001d0: 5447 9ebc bc99 be3b 3585 5d3e 19fb 553b
000001e0: f58b 51bc d1f1 dcbd 754f 01bd 99a6 e0bc
000001f0: 0bd6 29bc b912 98bd 0034 0e3d a22a 493c
00000200: 22b1 b0bd c68f 8cbb 439c 5d3d afdb 97bc
00000210: 9700 9abd 2380 bdbd 79d4 cdbd b8de 26bd
00000220: 760b 1abd 14cc 30bd 7372 ddbc f439 813d
00000230: 6afd 993d 24fa 99bd 18d1 ee3c ddde 5dbd
00000240: 8675 c33b 2681 82bc 15c0 8a3d 01ec 1f3e
00000250: 2c86 bd3b f9bb 61bc 23d7 a53d b331 4cbc
00000260: 3c70 72bd 751c 26bd 88a9 5a3e 73c7 013e
00000270: 4cdf 1fbd 5865 af3b 423c a5bd b951 cc3b
00000280: 0355 9fbc 0269 e6bc 6cb1 9dbd 85d7 8abd
00000290: 36b6 ba3d ccbb 3d3d 4033 81bd cf89 bcbd
000002a0: 9bcb 183d b01c 12bc 8abe 143d 262d a4bd
000002b0: 5dcd 253d 393f cbbd 3f2f fd38 4255 063c
000002c0: a9b4 f9bb 8441 983d b127 d2bd f054 e4bc
000002d0: 00c9 08be 8f26 8c3d 40c0 15bd 42df 1dbc
000002e0: b2c3 343d a418 47bd e2ca 46be 71a8 033d
000002f0: a09a 25bd f9cd b6bd 3ec6 543d a9ea 0cbd
00000300: aa00 743c c2e2 1f3c 0b94 783c da47 0abd
00000310: 6ce6 033c 9e6e 5fbc e603 6e3d 16c2 59bc
00000320: f19c 2f3c 51ef 0b3d 34ac cc3c 1d09 3ebc
00000330: 4392 d73d 588e 9a3c f9ca 42bd 7db8 b3bc
00000340: 9d06 7a3c 10d6 38bd 5ad1 9a3d 3879 81bd
00000350: 1177 e0bd 0ab3 843c cf8b a4bc c7d7 b5bc
00000360: b397 733d 0d9f 84bd b20c 9b3d bc02 463d
00000370: 5181 3dbc 7730 e83d 852f 603e d505 183b
00000380: ad83 14be 7139 913b 7b73 a5bd 8d91 77bc
00000390: 56ec c33c 028a af3d 9271 e73c 632d 30be
000003a0: 2752 6abd 3fde abbc 4c5d 8a3d c7bd 1c3d
000003b0: 4556 ca3c cbf0 2a3c 2bfe f0bb dc70 d7bd
000003c0: 2a95 4c3e 5576 c0bb 1bbf 2cbe c681 d4bd
000003d0: a6e8 0c3c f26f 1f3d 7a04 c0bd 5f9f 163d
000003e0: fd1b 023d 7279 62bd 8dca 3f3d ca8b c23c
000003f0: 4cc9 1abd b351 933c 1c6f f6bd cd52 8b3c
0.14371899 -0.012756104 -0.013602529 0.033184636 -0.052502204 -0.019760272 0.02868303 0.030560708
-0.08037315 0.09805802 -0.02774644 0.09161407 -0.038749695 0.01923947 -0.08820922 -0.0348861
-0.040435582 -0.03337285 -0.042106513 0.13185835 -0.07630668 0.14995937 -0.1094138 -0.09704581
0.046408795 -0.076404534 0.03481404 0.06300358 0.11810467 -0.02587077 -0.03344468 -0.0049192994
-0.03129202 0.054316435 -0.02972921 -0.008804336 -0.015042432 0.0522851 -0.0063248947 0.08655778
0.051975165 0.086487636 0.024851877 -0.032351088 -0.07531538 0.03810605 -0.03183524 0.004506816
0.05663404 0.017968113 0.022199282 0.07913727 0.028069392 0.1377122 0.02898751 -0.13164143
-0.117273174 0.021188691 0.09227781 0.00050756417 -0.090529524 0.010017042 -0.09126796 -0.03006449
-0.014750076 0.0057687275 -0.009119857 0.08707353 -0.016206667 0.21241103 -0.001867707 0.03717714
-0.02712022 -0.10638817 0.06974113 0.026875632 -0.046219874 0.0075670853 0.037705857 -0.011086993
-0.0479074 0.10937137 -0.00035878422 0.00356317 -0.074938096 0.02414168 -0.11279296 -0.018490765
-0.03243305 -0.07574736 -0.028141653 -0.016240813 -0.14953391 0.07440755 0.027984647 0.008134861
-0.029956698 -0.01845902 -0.030340308 -0.009298803 0.04330534 -0.025433745 0.018472258 0.081352204
0.035212677 -0.015243082 0.06679958 -0.03451308 0.012009182 0.04626237 0.13941528 0.22154263
-0.040183976 0.057410028 0.16832605 -0.057625204 -0.019321121 0.0058166664 0.21632846 0.0032650887
-0.012789716 -0.1078831 -0.031569917 -0.02742319 -0.010365973 -0.07425446 0.03471756 0.012278231
-0.086275354 -0.0042896 0.0541041 -0.01853737 -0.07519644 -0.09252956 -0.100502916 -0.040739745
-0.037608586 -0.043163374 -0.027032113 0.06309882 0.07519038 -0.07518414 0.029152438 -0.054167617
0.0059649376 -0.015930723 0.06774918 0.15617372 0.005783817 -0.013777726 0.08097675 -0.012463021
-0.059189066 -0.040554482 0.21353734 0.1267374 -0.039031312 0.0053526573 -0.08068134 0.006235328
-0.019449716 -0.028126244 -0.07699856 -0.06779388 0.09116785 0.046321675 -0.06308603 -0.092059724
0.03730355 -0.008917972 0.036314525 -0.08016424 0.040479053 -0.09924168 0.000120727804 0.008199038
-0.0076204133 0.07434371 -0.10261477 -0.027872533 -0.13357925 0.06843292 -0.036560297 -0.009635748
0.044131942 -0.048607484 -0.19413331 0.03214306 -0.040430665 -0.08926005 0.05194687 -0.034403477
0.014892736 0.009758653 0.015172015 -0.03375993 0.008050542 -0.013637213 0.058109187 -0.013290903
0.01071857 0.034163777 0.024984457 -0.011598852 0.10525944 0.018866703 -0.04755685 -0.021938557
0.015260366 -0.04512602 0.07559462 -0.06321949 -0.1096021 0.016198654 -0.020086197 -0.022197617
0.059470844 -0.06475649 0.07570781 0.04834245 -0.011566476 0.11337369 0.21893127 0.0023196836
-0.14503355 0.0044318964 -0.08078667 -0.015110386 0.023916405 0.08571245 0.028252397 -0.17204814
-0.057207253 -0.020979999 0.06756076 0.038266923 0.02469934 0.010433386 -0.007354518 -0.10519573
0.19978777 -0.0058734813 -0.16869776 -0.10376315 0.00860039 0.03892512 -0.09375854 0.036773082
0.031764973 -0.0552916 0.046824027 0.023748297 -0.037789628 0.017983293 -0.12032911 0.017007256

decoder.0.bias f4 [64]
00000000: 99a3 c5bc 3a79 063d 656f 39bd 87a6 713c
00000010: 5af0 05bd 9a33 aebc ce5d 723d 4784 6c3c
00000020: bdd0 cc3c bb9b 673a 5c75 513d fbe8 94bc
00000030: b82c d5bc 51dc 033d 27c0 13bd ab2e 203b
00000040: d37b aebb 4aad b73c 97a0 d93c 2103 8c3c
00000050: e440 3fbc 49c1 333d db4a eebc 85c5 18bc
00000060: 4092 24bd 91ba 503d 679c d93c 1e10 413d
00000070: 9a28 e23c e7da 5f3d 2c66 413c 5b97 163d
00000080: 4c15 dcbc ba76 103c 2693 783c 258e bd3b
00000090: bd75 023d 04b0 92bc c2ef f1bb 6cb6 00bd
000000a0: 6d05 34bd 61a8 b6bc 7383 51bc a012 52bc
000000b0: f0d7 2d3d f7f9 1138 873d 473c 8cd0 2e3d
000000c0: 04af fcbc 4f0c 06bd c6f6 8bbc a418 11bd
000000d0: 183c 443c 070a 543b 5f86 1c3d 7917 3abd
000000e0: 320d 30bd b8ac 6e3d b7cc 163c b932 de3b
000000f0: 632d 993c 2366 363d c8be 5e3d 32c2 98bc
-0.024125861 0.032830454 -0.04527225 0.014749176 -0.03269992 -0.02126484 0.05917149 0.014435834
0.025001878 0.00088351563 0.051137313 -0.0181775 -0.0260223 0.032192532 -0.036071923 0.0024441879
-0.0053248196 0.022421498 0.026565833 0.017091336 -0.011673186 0.043885503 -0.029088428 -0.009324436
-0.040178537 0.050959174 0.026563836 0.04713451 0.027607251 0.05465212 0.011804145 0.036765438
-0.026865624 0.008817369 0.015171802 0.005784767 0.031850565 -0.017906196 -0.0073833177 -0.03142397
-0.043950487 -0.022297086 -0.012787688 -0.012821823 0.042442262 3.4803492e-05 0.012160665 0.042679355
-0.030845173 -0.032726582 -0.017085444 -0.03542389 0.011977218 0.003235461 0.038214084 -0.04543254
-0.042981334 0.058270186 0.009204081 0.006780949 0.0186984 0.044531 0.054381162 -0.018647287

decoder.2.weight f4 [64, 32, 3, 3]
00000000: 6d36 dd3a db56 9fbd 031e 023c e668 88bd
00000010: b127 9ebd ae8f 9a3c dda5 05bd 4032 253a
00000020: d94a 21bc a7bf 6d3c dd84 e5bc 0c0b 543c
00000030: 56fa abbc 6b0e b7bd 1097 7d3d 8f70 97bd
00000040: fa94 f6bc 4136 ea3b 566c 0e3d e6ba 24bc
00000050: a888 f23c ba07 163d 68ff c53c ce2b 6f3d
00000060: 61b4 973d aa59 393c e7c2 a43c 6802 84bb
00000070: 7c14 a4bc b5f1 23bd aa3c 0bbc cd5a ac3d
00000080: d2ca 57bd 930e e93c 6fba 873c 37a6 483d
00000090: 7700 d8bc 7914 143e 3e2b 62bd 1734 333d
000000a0: bbbf 243d 32b8 003d 7c66 0b3d f10c af3c
000000b0: 7248 85bd 2e55 ea3d e771 483d e5c1 be3a
000000c0: 94e2 2ebd 22e5 4a3d 65bb bf3d f488 83bd
000000d0: df7e 203d b1db 40ba 28a0 e6bb d0ca b13c
000000e0: 46d1 733d b3f4 443c 0d98 833d 9269 c2b9
000000f0: 2e53 1e3b 4282 b4bc a3ce bb3b 40d5 9d3c
00000100: a5de e0bc ce24 973d d024 873c d993 7bbd
00000110: 631e 45bd 96ab 9ebd fa08 773d 37bb 18bd
00000120: 82eb 1cbb ba06 8c3c f53b 1b3d f018 ef3c
00000130: 5248 ad3d d3c6 123d 4de2 cfbc 8cc8 20bc
00000140: 5157 7dbc 1321 6d3c dbd8 30bd 34cb e93c
00000150: 9946 fbbc 6817 ebbc 923e 583d b7cf b13d
00000160: ecbd e63d af42 923d aff6 d5ba e0af 0a3d
00000170: 776e 2cbc 3a4c 2c3d b8fe a03d 8cab e8bb
00000180: 41d2 323d 1d5f 973d b5fe 6abd d495 a93c
00000190: 44e7 c63d d21a 7e3c 1b8b 873d 4f40 f93d
000001a0: ba03 0f3d d413 7b3d d2c8 c23c cd36 b9bb
000001b0: 820b d3bd fd02 943d cd1d 663d 1122 623c
000001c0: 0c3f 07bd e2f8 a1bd cc4b b1bd f4ed d8bd
000001d0: 2ba7 7a3d 8769 943c 4566 db3c 34f1 78bd
000001e0: 922f 80bd a379 6c3d 8f38 773d 13e3 d33d
000001f0: bc2d 98bb 2697 513c 5cf1 e7bc 2b29 c63d
00000200: aff9 933d 69e9 c73d 8348 0b3e 471a 923d
00000210: d569 d3bc 8e47 813d f39a a03c bad6 c13c
00000220: 5e4d 0a3a 4f1c 8aba 8c9a 32bc bd11 a93c
00000230: e987 c23b 3c38 08bd 771a 8a3c 1000 133d
00000240: ccdd 4cbd 8a5e a63d 22f6 4a3d 9dd1 2d3d
00000250: bb8e 603d deec 553d fefa 77bb 7ed6 c8bc
00000260: 0a95 37bc 0452 903d c8fa b0bc ac9b 6dbc
00000270: dac8 a5bc 4735 363d d4d5 e1bb ca85 553d
00000280: 332a 0d3d b164 21bc bed7 8cbd 2bf5 d33c
00000290: ec1b 023c 3a5d 8939 883a 953d cdc9 dfbc
000002a0: 2c08 bd3c bf4a e33c f1d8 b73d 63c0 053d
000002b0: 615f fe3c 5bf8 f33c 40ef ca3d 4c02 a33d
000002c0: 8a7a 81bd 8d4c 16bc 42e8 003d f648 1abd
000002d0: eb19 27bd f681 efbc 869b 79bd 8eeb 113c
000002e0: 76e9 703c 6660 ff3c a526 3ebd 60e4 4d3d
000002f0: 51ec 893d e94b b7bc 65aa 7a3c 7810 63bc
00000300: 8801 453d a311 3f3d 2881 843d e3bb dfbb
00000310: 92dc 013c 86a8 74bc ecc0 f6bc 4637 53bd
00000320: 8088 913d 4265 083d 5199 183d 28c9 543b
00000330: 63f9 efbd 625a 83bb b4ff fabb f7a3 ad3c
00000340: d38d b33b fd47 04bd bc83 46bb 282e 513c
00000350: ca30 9ebd a5d9 063d edd5 e33c 50a0 d8bd
00000360: 2e7b 50bd aa31 163c b1a1 30bd c644 0dbe
00000370: 8c84 88bd 5896 53bc 3578 533d b4e0 09bd
00000380: 5a61 803c 77c3 643d 80ae e0bc 370e f33c
00000390: 18d3 aebc 984c 513d ec27 873b 6a34 b9bd
000003a0: 8036 95bd e0c5 6f3c 185c 693d 7b87 aa3d
000003b0: f5cf 10bd 1f82 933d bad7 023d bc8e 143d
000003c0: bb38 3d3c 0579 11bc c230 c6bc 3fd5 6e3d
000003d0: 6abb b93d e67b 363d 1802 b43d 9152 a93c
000003e0: 22d1 39bd dd60 9b3d e6d7 693d 84cc 43bd
000003f0: 887e 753c d700 8bbd 0ec2 fcbc 0cd7 babd
0.0016877182 -0.07780238 0.007941726 -0.06660633 -0.07722414 0.01886734 -0.032628883 0.00063017383
-0.009844505 0.0145110255 -0.028017456 0.012942087 -0.020993393 -0.08938297 0.061911643 -0.07394516
-0.030100334 0.007147581 0.034771286 -0.010054326 0.029606178 0.036628462 0.024169639 0.058391385
0.074074514 0.0113128815 0.020112468 -0.004028607 -0.020029299 -0.04002543 -0.00849835 0.084157564
-0.05268366 0.028449332 0.01656839 0.04898664 -0.02636741 0.14460935 -0.05521702 0.04375085
0.04022191 0.031425662 0.034033284 0.021368476 -0.065079585 0.11442028 0.04893675 0.0014553635
-0.04269655 0.049534924 0.093619145 -0.06422606 0.039183494 -0.00073569553 -0.007038135 0.021703154
0.05952575 0.012021231 0.06425486 -0.0003708122 0.0024158466 -0.022034768 0.00573142 0.019266725
-0.027449915 0.07380067 0.016497046 -0.061420295 -0.048124682 -0.07747571 0.060311295 -0.037287917
-0.0023944085 0.017093051 0.037898976 0.029186696 0.0846106 0.035834145 -0.025376463 -0.009813439
-0.015462712 0.014473218 -0.04317556 0.028539278 -0.030673312 -0.028697684 0.052794047 0.086821966
0.112666935 0.07141625 -0.0016324128 0.033859134 -0.010524384 0.042064883 0.07861084 -0.007100528
0.043657545 0.07391188 -0.057371814 0.020701326 0.09712079 0.015509324 0.06618329 0.12170469
0.034915663 0.061298206 0.0237774 -0.0056522847 -0.10304929 0.072271325 0.056180764 0.013802067
-0.03301911 -0.07908799 -0.08657035 -0.10592261 0.06119458 0.018116726 0.026782164 -0.060776904
-0.06259073 0.05773319 0.060356673 0.10346045 -0.004644124 0.012792384 -0.028313331 0.09675821
0.07225358 0.09761316 0.1360188 0.07133918 -0.0258073 0.06312476 0.019605136 0.02366196
0.0005275811 -0.0010537001 -0.010901105 0.020638341 0.005936612 -0.033256754 0.016858323 0.03588873
-0.05001621 0.08123501 0.049551137 0.04243623 0.05482362 0.052227847 -0.0037838812 -0.02451634
-0.011204967 0.07046893 -0.021603957 -0.014502447 -0.020237375 0.044484403 -0.0068919454 0.052129544
0.034464072 -0.009850667 -0.06877087 0.025873741 0.007941227 0.00026200135 0.072865546 -0.027317906
0.023075186 0.027745603 0.08976925 0.032654177 0.03105134 0.029781511 0.099089146 0.079594225
-0.063222006 -0.009173525 0.0314715 -0.037667237 -0.0407962 -0.029236775 -0.060939334 0.008906258
0.014704099 0.031173896 -0.046423573 0.050266623 0.06734527 -0.022375064 0.015299414 -0.013858907
0.048097163 0.04664768 0.06469947 -0.0068278178 0.007926123 -0.014932757 -0.03012129 -0.051566385
0.071061134 0.033299692 0.03725559 0.0032468531 -0.117174886 -0.004008577 -0.0076598767 0.021196349
0.0054795532 -0.032295216 -0.0030290922 0.012767352 -0.077241495 0.032922406 0.027811969 -0.10577452
-0.050898723 0.009167114 -0.04312295 -0.13795766 -0.06665906 -0.012914263 0.05162831 -0.03366156
0.01567142 0.055850472 -0.027426958 0.029669864 -0.021340892 0.051098436 0.004124632 -0.090432
-0.07285786 0.014634579 0.056972593 0.08326622 -0.035354573 0.07202553 0.031944014 0.036268935
0.01154917 -0.008878951 -0.024193171 0.058308836 0.090689495 0.044551753 0.08789462 0.020669254
-0.04536546 0.075868346 0.057090662 -0.047802463 0.014983781 -0.067872696 -0.030854251 -0.09123048

decoder.2.bias f4 [32]
00000000: d706 4d3d d152 3ebd 8991 02bd 55f9 913c
00000010: 0bf5 053d 9788 0f3c d964 9d3d e49f dc3b
00000020: 3285 813d b2c2 5fbd d2f3 22bd 3261 7b3d
00000030: 6c56 833b 3fde 3a3d 343a 6c3d ab53 373d
00000040: 0c43 1d3d 676c 04bd 1820 10bd 61be 563d
00000050: 0449 97ba 6d8d c03d c3d8 5dbd 2ef2 d13d
00000060: e81c a3bd e24d 7f3d 6831 863d 82d6 a23d
00000070: 2f6f 11bd 2f31 2b3c 1505 a03c 0273 83bd
0.05005535 -0.0464657 -0.031877074 0.017819086 0.032704394 0.008760593 0.07685251 0.0067329276
0.06324233 -0.054629035 -0.039783306 0.06137199 0.004008105 0.045622107 0.057672694 0.044757526
0.03839402 -0.032329943 -0.035186857 0.052427653 -0.0011542146 0.09401975 -0.0541618 0.1025127
-0.07964498 0.062330134 0.06552392 0.0795107 -0.035506424 0.010448738 0.019533673 -0.064184204

decoder.4.weight f4 [32, 1, 3, 3]
00000000: 4024 813e 7519 7abe b67f 4fbe 80f3 efbb
00000010: ff87 22be a54a 26be fd79 593e c4b3 ba3e
00000020: 9543 933e 5ca7 133d 47a1 e8be 63fd ddbe
00000030: 85f7 c7bd 9427 afbe 4b2e 01bf 5f98 d53d
00000040: 4a7b d7bd ca98 77be d788 0fbe a5db 51bd
00000050: 18cf 98be 27de 52be 944d 10bf 5554 e1be
00000060: ef15 96be 2c22 67be 7ab9 3ebe ff7c 81bd
00000070: 5c1f 673e 5d4e 9b3e 5410 debe 8405 9bbe
00000080: 9592 f8bd a1e9 e5bc 85ed e6be 381f 61be
00000090: fe13 5dbc 5282 fcbc fc75 b23e 61f5 c03e
000000a0: 8c30 6f3e 814f fb3e 70ee 6abd 3715 193e
000000b0: 4296 c0bd 3efb b5be 70cf f63d db5f 023f
000000c0: 8353 f1be 81c8 e83c 9a99 fd3e 7f82 b2be
000000d0: 75e4 eb3d 2d8e 853e b9e7 873d 209a be3e
000000e0: 133c 35bc a2f4 d83d 2806 ef3e c32d 813e
000000f0: ac2c aa3d e0a5 9f3e 45f8 b23e 1a5a 92be
00000100: bd06 45bd 203f 5bbc ecc6 83be c4c7 f7be
00000110: fafb 89be aee3 53be a537 7dbe cdd6 173d
00000120: 3fc3 b73d dc32 1f3e 135c 863e 8b4b 143e
00000130: 28ae 873e 7379 b4bd 72e3 9f3e acab 273e
00000140: c6b4 b4bd 7382 bebb 540e 733c 9338 053e
00000150: 4f0f 61be 21ac d23d a1b9 323e df89 a1bd
00000160: 6de6 cabe 0539 7abe 56c6 0cbe de44 3dbe
00000170: 5c64 babc 4336 83be 0b82 18be d924 82be
00000180: ff08 e6be 33b2 acbe ab91 cabe 7e1c 9d3e
00000190: 88a9 943e 2af0 6d3e aacc aa3e 1a07 2a3e
000001a0: e356 0f3b ef9d 9a3e f944 61bd a695 e4bc
000001b0: d878 c7bd db16 bebe 5629 afbd 271b bdbe
000001c0: 2f85 25bf 650c 5bbe b321 8abe c262 17bf
000001d0: fb75 b5be f14c 783e 4b5a 173e 3171 b53d
000001e0: 9471 ee3e 966c f53e edd7 43bd 95c8 01bb
000001f0: 3d04 473c 8ebe 4dbe 8f43 a33d 49ff 5f3e
00000200: 4273 843c 4b33 293e 7bea e33e 2b29 fe3d
00000210: 1652 86bd e160 8e3e 30cc 28be 8df8 4fbd
00000220: 869e d6bc 5933 473e ef08 843e 4366 963e
00000230: 8f85 9f3e 7f08 853e 6a71 693e 48a1 9abd
00000240: 6b92 673e 52b7 c83e 540d 113e 6958 d73e
00000250: fa2b e13e 7b15 c63e cabd aa3e 36a2 e93e
00000260: df79 d13e 50d8 dd3e 725a a73e a07f 73bd
00000270: 18dc e03e ea1f 8a3e a8b6 d03c f23b 0fbe
00000280: f86b 273e ff1a ffbd fb66 d13e fd75 ab3e
00000290: 4da1 d73d f3e7 b63e ff7b 433e c8ee 8abe
000002a0: ee03 c23e 59e1 283e a754 6ebe eb1b 2b3e
000002b0: b344 2bbe 0918 8b3e 8950 f43d 8611 a13e
000002c0: d1c5 9a3d 9e83 b5bb 5cd6 fe3d f3da 853d
000002d0: ceca 93be afb5 8abe 9888 88be f87a 8e3e
000002e0: 3473 203e 8e39 083e ab4c 983e db00 6bbc
000002f0: dc7e 0a3e d077 9dbe bc5a 173e 48c0 363a
00000300: 095b 0abe 28b8 3b3e 794e a33e a249 193e
00000310: 5497 02be 32b3 933e bfda d0bc a48e 553d
00000320: e5fb 54be aacb 373e ed96 21bd 8499 a3be
00000330: 6625 26be a753 98be 9cd5 bfbc 3fef 4dbe
00000340: b646 4f3b fb25 48be e6da f2bd 0720 6b3e
00000350: 40d4 b73e 421d 3fbe b614 953e aac8 883d
00000360: 2bbd 9dbe fea4 7bbe d9c3 a63e 950a 1bbf
00000370: c92c 01bf 89b1 2e3e de4b 9bbe 5009 16be
00000380: 3086 803e 2e42 ae3e de28 143e 5f21 7a3e
00000390: a8c5 d03e d514 923e 4df0 bc3e a065 713e
000003a0: c616 fb3e df2e cf3e 5854 383c 55de cc3d
000003b0: 97b5 8f3e 4efd 203e f5b6 d93d 8494 873e
000003c0: 8043 3e3c 5290 9f3e 2623 343e 4935 5639
000003d0: 899a a73e 09d8 603e 2a7e a5be c2dc 423e
000003e0: 73e1 95bb fed1 d6bd ccf2 85bb b8ec fe3d
000003f0: 792b 0bbe 464c 963d d07c 40bc d94a babd
0.2522297 -0.24423774 -0.20263562 -0.0073227286 -0.15872191 -0.16239412 0.21237941 0.36465275
0.28762498 0.03604828 -0.45435545 -0.4335738 -0.097640075 -0.34209883 -0.5046126 0.10429453
-0.105215624 -0.24179378 -0.14017044 -0.05123486 -0.298455 -0.20592557 -0.56368375 -0.44009653
-0.2931361 -0.2257163 -0.18625441 -0.06322669 0.22570556 0.30333224 -0.43371832 -0.30277646
-0.12137333 -0.028065505 -0.45103088 -0.21984565 -0.013493536 -0.03082386 0.3485564 0.3768721
0.23358363 0.49084094 -0.057356298 0.14949499 -0.094036594 -0.35543245 0.12051284 0.50927514
-0.47134027 0.02841592 0.4953125 -0.34865186 0.11518184 0.26085034 0.066359945 0.37226963
-0.011061686 0.10593535 0.46684384 0.25230226 0.08309302 0.3118124 0.3495504 -0.28584367
-0.04810213 -0.013381749 -0.25737703 -0.48394597 -0.26950055 -0.20692322 -0.24728258 0.037070084
0.08972787 0.15546745 0.26242122 0.14481942 0.26500058 -0.08812227 0.31228215 0.16374081
-0.08823542 -0.0058138906 0.014834959 0.13009863 -0.21978496 0.10286737 0.17453624 -0.07887625
-0.39628926 -0.24435814 -0.13747534 -0.18483302 -0.022752933 -0.25627336 -0.14893357 -0.25418738
-0.44928738 -0.33729705 -0.3956426 0.306858 0.29035592 0.23236147 0.3335927 0.16604272
0.0021871857 0.3019862 -0.054997418 -0.02790339 -0.09739846 -0.37126812 -0.08552806 -0.36934778
-0.6465635 -0.21391447 -0.26978835 -0.5913507 -0.35441574 0.24248101 0.14780538 0.0885948
0.46571028 0.47934407 -0.047813345 -0.0019803394 0.012147007 -0.20092222 0.0797187 0.21874727
0.01616824 0.16523473 0.44514832 0.12410196 -0.065586254 0.27808288 -0.16484141 -0.050774146
-0.026198637 0.19453181 0.25788066 0.29374894 0.31156585 0.25983045 0.2279717 -0.07550293
0.22614448 0.39202362 0.1416524 0.4205964 0.43978864 0.38688263 0.33347923 0.4563157
0.40913293 0.43329096 0.32686192 -0.059447885 0.43917918 0.26977473 0.025477722 -0.13987711
0.1634978 -0.12456321 0.4089888 0.33488455 0.105288126 0.35723838 0.1909027 -0.271353
0.37893623 0.16492213 -0.2327448 0.16709869 -0.16725425 0.27166775 0.11929423 0.31458682
0.07557262 -0.0055393716 0.124432296 0.06535902 -0.28865665 -0.2709174 -0.26666713 0.27828193
0.15668947 0.13303205 0.29745993 -0.014343466 0.13524956 -0.30755472 0.14780706 0.0006971401
-0.1351129 0.18331969 0.31895807 0.14969495 -0.1275304 0.28847653 -0.025494931 0.052137986
-0.20799215 0.17948785 -0.039450575 -0.3195306 -0.16225204 -0.29751322 -0.023417287 -0.20110796
0.003162784 -0.19545738 -0.11858158 0.22961436 0.3590412 -0.18663505 0.29117364 0.06678899
-0.30808386 -0.24574658 0.32571295 -0.6056302 -0.5045896 0.17059912 -0.3033132 -0.1465199
0.25102377 0.34034866 0.14468715 0.24426793 0.407758 0.2853152 0.36902085 0.23573923
0.49040812 0.40465447 0.011250578 0.10003344 0.2806823 0.15721628 0.106305994 0.26480496
0.011612773 0.31164795 0.17591533 0.0002042848 0.32735088 0.21957411 -0.32322818 0.19029525
-0.004573995 -0.104892716 -0.0040877815 0.12447494 -0.13590802 0.07338767 -0.011748508 -0.09096307
